{
  "format": "graph-model",
  "generatedBy": "1.15.0",
  "convertedBy": "TensorFlow.js Converter v1.4.0",
  "userDefinedMetadata": {
	"signature": {
	  "outputs": {
		"ae_encoder/fc_bottleneck/LeakyRelu": {
		  "name": "ae_encoder/fc_bottleneck/LeakyRelu"
		},
		"ae_decoder/truediv": {
		  "name": "ae_decoder/truediv"
		}
	  }
	}
  },
  "modelTopology": {
	"node": [
	  {
		"name": "Placeholder",
		"op": "Placeholder",
		"attr": {
		  "shape": {
			"shape": {
			  "dim": [
				{
				  "size": "-1"
				},
				{
				  "size": "64"
				},
				{
				  "size": "64"
				}
			  ]
			}
		  },
		  "dtype": {
			"type": "DT_FLOAT"
		  }
		}
	  },
	  {
		"name": "Reshape/shape",
		"op": "Const",
		"attr": {
		  "value": {
			"tensor": {
			  "dtype": "DT_INT32",
			  "tensorShape": {
				"dim": [
				  {
					"size": "4"
				  }
				]
			  }
			}
		  },
		  "dtype": {
			"type": "DT_INT32"
		  }
		}
	  },
	  {
		"name": "ae_encoder/res1/conv2d/kernel",
		"op": "Const",
		"attr": {
		  "value": {
			"tensor": {
			  "dtype": "DT_FLOAT",
			  "tensorShape": {
				"dim": [
				  {
					"size": "1"
				  },
				  {
					"size": "1"
				  },
				  {
					"size": "1"
				  },
				  {
					"size": "32"
				  }
				]
			  }
			}
		  },
		  "dtype": {
			"type": "DT_FLOAT"
		  }
		}
	  },
	  {
		"name": "ae_decoder/res6/separable_conv2d_12/depthwise_kernel",
		"op": "Const",
		"attr": {
		  "value": {
			"tensor": {
			  "dtype": "DT_FLOAT",
			  "tensorShape": {
				"dim": [
				  {
					"size": "3"
				  },
				  {
					"size": "3"
				  },
				  {
					"size": "128"
				  },
				  {
					"size": "1"
				  }
				]
			  }
			}
		  },
		  "dtype": {
			"type": "DT_FLOAT"
		  }
		}
	  },
	  {
		"name": "ae_encoder/res1/separable_conv2d/depthwise_kernel",
		"op": "Const",
		"attr": {
		  "value": {
			"tensor": {
			  "dtype": "DT_FLOAT",
			  "tensorShape": {
				"dim": [
				  {
					"size": "3"
				  },
				  {
					"size": "3"
				  },
				  {
					"size": "1"
				  },
				  {
					"size": "1"
				  }
				]
			  }
			}
		  },
		  "dtype": {
			"type": "DT_FLOAT"
		  }
		}
	  },
	  {
		"name": "ae_decoder/res9/BatchNorm_1/beta",
		"op": "Const",
		"attr": {
		  "value": {
			"tensor": {
			  "dtype": "DT_FLOAT",
			  "tensorShape": {
				"dim": [
				  {
					"size": "32"
				  }
				]
			  }
			}
		  },
		  "dtype": {
			"type": "DT_FLOAT"
		  }
		}
	  },
	  {
		"name": "ae_encoder/res1/separable_conv2d/pointwise_kernel",
		"op": "Const",
		"attr": {
		  "value": {
			"tensor": {
			  "dtype": "DT_FLOAT",
			  "tensorShape": {
				"dim": [
				  {
					"size": "1"
				  },
				  {
					"size": "1"
				  },
				  {
					"size": "1"
				  },
				  {
					"size": "32"
				  }
				]
			  }
			}
		  },
		  "dtype": {
			"type": "DT_FLOAT"
		  }
		}
	  },
	  {
		"name": "ae_encoder/res1/BatchNorm/Const",
		"op": "Const",
		"attr": {
		  "value": {
			"tensor": {
			  "dtype": "DT_FLOAT",
			  "tensorShape": {
				"dim": [
				  {
					"size": "32"
				  }
				]
			  }
			}
		  },
		  "dtype": {
			"type": "DT_FLOAT"
		  }
		}
	  },
	  {
		"name": "ae_encoder/res1/BatchNorm/beta",
		"op": "Const",
		"attr": {
		  "value": {
			"tensor": {
			  "dtype": "DT_FLOAT",
			  "tensorShape": {
				"dim": [
				  {
					"size": "32"
				  }
				]
			  }
			}
		  },
		  "dtype": {
			"type": "DT_FLOAT"
		  }
		}
	  },
	  {
		"name": "ae_decoder/res6/separable_conv2d_12/pointwise_kernel",
		"op": "Const",
		"attr": {
		  "value": {
			"tensor": {
			  "dtype": "DT_FLOAT",
			  "tensorShape": {
				"dim": [
				  {
					"size": "1"
				  },
				  {
					"size": "1"
				  },
				  {
					"size": "128"
				  },
				  {
					"size": "64"
				  }
				]
			  }
			}
		  },
		  "dtype": {
			"type": "DT_FLOAT"
		  }
		}
	  },
	  {
		"name": "ae_encoder/res1/BatchNorm/Const_1",
		"op": "Const",
		"attr": {
		  "value": {
			"tensor": {
			  "dtype": "DT_FLOAT",
			  "tensorShape": {
				"dim": [
				  {}
				]
			  }
			}
		  },
		  "dtype": {
			"type": "DT_FLOAT"
		  }
		}
	  },
	  {
		"name": "ae_encoder/res1/conv2d_1/kernel",
		"op": "Const",
		"attr": {
		  "value": {
			"tensor": {
			  "dtype": "DT_FLOAT",
			  "tensorShape": {
				"dim": [
				  {
					"size": "1"
				  },
				  {
					"size": "1"
				  },
				  {
					"size": "32"
				  },
				  {
					"size": "32"
				  }
				]
			  }
			}
		  },
		  "dtype": {
			"type": "DT_FLOAT"
		  }
		}
	  },
	  {
		"name": "ae_encoder/res1/BatchNorm_1/beta",
		"op": "Const",
		"attr": {
		  "value": {
			"tensor": {
			  "dtype": "DT_FLOAT",
			  "tensorShape": {
				"dim": [
				  {
					"size": "32"
				  }
				]
			  }
			}
		  },
		  "dtype": {
			"type": "DT_FLOAT"
		  }
		}
	  },
	  {
		"name": "ae_encoder/res1/BatchNorm_2/beta",
		"op": "Const",
		"attr": {
		  "value": {
			"tensor": {
			  "dtype": "DT_FLOAT",
			  "tensorShape": {
				"dim": [
				  {
					"size": "32"
				  }
				]
			  }
			}
		  },
		  "dtype": {
			"type": "DT_FLOAT"
		  }
		}
	  },
	  {
		"name": "ae_decoder/res6/BatchNorm/Const",
		"op": "Const",
		"attr": {
		  "value": {
			"tensor": {
			  "dtype": "DT_FLOAT",
			  "tensorShape": {
				"dim": [
				  {
					"size": "64"
				  }
				]
			  }
			}
		  },
		  "dtype": {
			"type": "DT_FLOAT"
		  }
		}
	  },
	  {
		"name": "ae_encoder/res2/conv2d_2/kernel",
		"op": "Const",
		"attr": {
		  "value": {
			"tensor": {
			  "dtype": "DT_FLOAT",
			  "tensorShape": {
				"dim": [
				  {
					"size": "1"
				  },
				  {
					"size": "1"
				  },
				  {
					"size": "32"
				  },
				  {
					"size": "32"
				  }
				]
			  }
			}
		  },
		  "dtype": {
			"type": "DT_FLOAT"
		  }
		}
	  },
	  {
		"name": "ae_decoder/res6/BatchNorm/beta",
		"op": "Const",
		"attr": {
		  "value": {
			"tensor": {
			  "dtype": "DT_FLOAT",
			  "tensorShape": {
				"dim": [
				  {
					"size": "64"
				  }
				]
			  }
			}
		  },
		  "dtype": {
			"type": "DT_FLOAT"
		  }
		}
	  },
	  {
		"name": "ae_encoder/res2/separable_conv2d_1/depthwise_kernel",
		"op": "Const",
		"attr": {
		  "value": {
			"tensor": {
			  "dtype": "DT_FLOAT",
			  "tensorShape": {
				"dim": [
				  {
					"size": "3"
				  },
				  {
					"size": "3"
				  },
				  {
					"size": "32"
				  },
				  {
					"size": "1"
				  }
				]
			  }
			}
		  },
		  "dtype": {
			"type": "DT_FLOAT"
		  }
		}
	  },
	  {
		"name": "ae_encoder/res2/separable_conv2d_1/pointwise_kernel",
		"op": "Const",
		"attr": {
		  "value": {
			"tensor": {
			  "dtype": "DT_FLOAT",
			  "tensorShape": {
				"dim": [
				  {
					"size": "1"
				  },
				  {
					"size": "1"
				  },
				  {
					"size": "32"
				  },
				  {
					"size": "32"
				  }
				]
			  }
			}
		  },
		  "dtype": {
			"type": "DT_FLOAT"
		  }
		}
	  },
	  {
		"name": "ae_encoder/res2/BatchNorm/beta",
		"op": "Const",
		"attr": {
		  "value": {
			"tensor": {
			  "dtype": "DT_FLOAT",
			  "tensorShape": {
				"dim": [
				  {
					"size": "32"
				  }
				]
			  }
			}
		  },
		  "dtype": {
			"type": "DT_FLOAT"
		  }
		}
	  },
	  {
		"name": "ae_encoder/res2/conv2d_3/kernel",
		"op": "Const",
		"attr": {
		  "value": {
			"tensor": {
			  "dtype": "DT_FLOAT",
			  "tensorShape": {
				"dim": [
				  {
					"size": "1"
				  },
				  {
					"size": "1"
				  },
				  {
					"size": "32"
				  },
				  {
					"size": "32"
				  }
				]
			  }
			}
		  },
		  "dtype": {
			"type": "DT_FLOAT"
		  }
		}
	  },
	  {
		"name": "ae_encoder/res2/BatchNorm_1/beta",
		"op": "Const",
		"attr": {
		  "value": {
			"tensor": {
			  "dtype": "DT_FLOAT",
			  "tensorShape": {
				"dim": [
				  {
					"size": "32"
				  }
				]
			  }
			}
		  },
		  "dtype": {
			"type": "DT_FLOAT"
		  }
		}
	  },
	  {
		"name": "ae_encoder/res2/BatchNorm_2/beta",
		"op": "Const",
		"attr": {
		  "value": {
			"tensor": {
			  "dtype": "DT_FLOAT",
			  "tensorShape": {
				"dim": [
				  {
					"size": "32"
				  }
				]
			  }
			}
		  },
		  "dtype": {
			"type": "DT_FLOAT"
		  }
		}
	  },
	  {
		"name": "ae_decoder/res6/conv2d_25/kernel",
		"op": "Const",
		"attr": {
		  "value": {
			"tensor": {
			  "dtype": "DT_FLOAT",
			  "tensorShape": {
				"dim": [
				  {
					"size": "1"
				  },
				  {
					"size": "1"
				  },
				  {
					"size": "64"
				  },
				  {
					"size": "64"
				  }
				]
			  }
			}
		  },
		  "dtype": {
			"type": "DT_FLOAT"
		  }
		}
	  },
	  {
		"name": "ae_encoder/res3/conv2d_4/kernel",
		"op": "Const",
		"attr": {
		  "value": {
			"tensor": {
			  "dtype": "DT_FLOAT",
			  "tensorShape": {
				"dim": [
				  {
					"size": "1"
				  },
				  {
					"size": "1"
				  },
				  {
					"size": "32"
				  },
				  {
					"size": "64"
				  }
				]
			  }
			}
		  },
		  "dtype": {
			"type": "DT_FLOAT"
		  }
		}
	  },
	  {
		"name": "ae_encoder/res3/separable_conv2d_2/depthwise_kernel",
		"op": "Const",
		"attr": {
		  "value": {
			"tensor": {
			  "dtype": "DT_FLOAT",
			  "tensorShape": {
				"dim": [
				  {
					"size": "3"
				  },
				  {
					"size": "3"
				  },
				  {
					"size": "32"
				  },
				  {
					"size": "1"
				  }
				]
			  }
			}
		  },
		  "dtype": {
			"type": "DT_FLOAT"
		  }
		}
	  },
	  {
		"name": "ae_encoder/res3/separable_conv2d_2/pointwise_kernel",
		"op": "Const",
		"attr": {
		  "value": {
			"tensor": {
			  "dtype": "DT_FLOAT",
			  "tensorShape": {
				"dim": [
				  {
					"size": "1"
				  },
				  {
					"size": "1"
				  },
				  {
					"size": "32"
				  },
				  {
					"size": "64"
				  }
				]
			  }
			}
		  },
		  "dtype": {
			"type": "DT_FLOAT"
		  }
		}
	  },
	  {
		"name": "ae_encoder/res3/BatchNorm/beta",
		"op": "Const",
		"attr": {
		  "value": {
			"tensor": {
			  "dtype": "DT_FLOAT",
			  "tensorShape": {
				"dim": [
				  {
					"size": "64"
				  }
				]
			  }
			}
		  },
		  "dtype": {
			"type": "DT_FLOAT"
		  }
		}
	  },
	  {
		"name": "ae_decoder/res6/BatchNorm_1/beta",
		"op": "Const",
		"attr": {
		  "value": {
			"tensor": {
			  "dtype": "DT_FLOAT",
			  "tensorShape": {
				"dim": [
				  {
					"size": "64"
				  }
				]
			  }
			}
		  },
		  "dtype": {
			"type": "DT_FLOAT"
		  }
		}
	  },
	  {
		"name": "ae_encoder/res3/conv2d_5/kernel",
		"op": "Const",
		"attr": {
		  "value": {
			"tensor": {
			  "dtype": "DT_FLOAT",
			  "tensorShape": {
				"dim": [
				  {
					"size": "1"
				  },
				  {
					"size": "1"
				  },
				  {
					"size": "64"
				  },
				  {
					"size": "64"
				  }
				]
			  }
			}
		  },
		  "dtype": {
			"type": "DT_FLOAT"
		  }
		}
	  },
	  {
		"name": "ae_encoder/res3/BatchNorm_1/beta",
		"op": "Const",
		"attr": {
		  "value": {
			"tensor": {
			  "dtype": "DT_FLOAT",
			  "tensorShape": {
				"dim": [
				  {
					"size": "64"
				  }
				]
			  }
			}
		  },
		  "dtype": {
			"type": "DT_FLOAT"
		  }
		}
	  },
	  {
		"name": "ae_encoder/res3/BatchNorm_2/beta",
		"op": "Const",
		"attr": {
		  "value": {
			"tensor": {
			  "dtype": "DT_FLOAT",
			  "tensorShape": {
				"dim": [
				  {
					"size": "64"
				  }
				]
			  }
			}
		  },
		  "dtype": {
			"type": "DT_FLOAT"
		  }
		}
	  },
	  {
		"name": "ae_encoder/res4/conv2d_6/kernel",
		"op": "Const",
		"attr": {
		  "value": {
			"tensor": {
			  "dtype": "DT_FLOAT",
			  "tensorShape": {
				"dim": [
				  {
					"size": "1"
				  },
				  {
					"size": "1"
				  },
				  {
					"size": "64"
				  },
				  {
					"size": "64"
				  }
				]
			  }
			}
		  },
		  "dtype": {
			"type": "DT_FLOAT"
		  }
		}
	  },
	  {
		"name": "ae_encoder/res4/separable_conv2d_3/depthwise_kernel",
		"op": "Const",
		"attr": {
		  "value": {
			"tensor": {
			  "dtype": "DT_FLOAT",
			  "tensorShape": {
				"dim": [
				  {
					"size": "3"
				  },
				  {
					"size": "3"
				  },
				  {
					"size": "64"
				  },
				  {
					"size": "1"
				  }
				]
			  }
			}
		  },
		  "dtype": {
			"type": "DT_FLOAT"
		  }
		}
	  },
	  {
		"name": "ae_encoder/res4/separable_conv2d_3/pointwise_kernel",
		"op": "Const",
		"attr": {
		  "value": {
			"tensor": {
			  "dtype": "DT_FLOAT",
			  "tensorShape": {
				"dim": [
				  {
					"size": "1"
				  },
				  {
					"size": "1"
				  },
				  {
					"size": "64"
				  },
				  {
					"size": "64"
				  }
				]
			  }
			}
		  },
		  "dtype": {
			"type": "DT_FLOAT"
		  }
		}
	  },
	  {
		"name": "ae_encoder/res4/BatchNorm/beta",
		"op": "Const",
		"attr": {
		  "value": {
			"tensor": {
			  "dtype": "DT_FLOAT",
			  "tensorShape": {
				"dim": [
				  {
					"size": "64"
				  }
				]
			  }
			}
		  },
		  "dtype": {
			"type": "DT_FLOAT"
		  }
		}
	  },
	  {
		"name": "ae_decoder/res6/BatchNorm_2/beta",
		"op": "Const",
		"attr": {
		  "value": {
			"tensor": {
			  "dtype": "DT_FLOAT",
			  "tensorShape": {
				"dim": [
				  {
					"size": "64"
				  }
				]
			  }
			}
		  },
		  "dtype": {
			"type": "DT_FLOAT"
		  }
		}
	  },
	  {
		"name": "ae_encoder/res4/conv2d_7/kernel",
		"op": "Const",
		"attr": {
		  "value": {
			"tensor": {
			  "dtype": "DT_FLOAT",
			  "tensorShape": {
				"dim": [
				  {
					"size": "1"
				  },
				  {
					"size": "1"
				  },
				  {
					"size": "64"
				  },
				  {
					"size": "64"
				  }
				]
			  }
			}
		  },
		  "dtype": {
			"type": "DT_FLOAT"
		  }
		}
	  },
	  {
		"name": "ae_encoder/res4/BatchNorm_1/beta",
		"op": "Const",
		"attr": {
		  "value": {
			"tensor": {
			  "dtype": "DT_FLOAT",
			  "tensorShape": {
				"dim": [
				  {
					"size": "64"
				  }
				]
			  }
			}
		  },
		  "dtype": {
			"type": "DT_FLOAT"
		  }
		}
	  },
	  {
		"name": "ae_encoder/res4/BatchNorm_2/beta",
		"op": "Const",
		"attr": {
		  "value": {
			"tensor": {
			  "dtype": "DT_FLOAT",
			  "tensorShape": {
				"dim": [
				  {
					"size": "64"
				  }
				]
			  }
			}
		  },
		  "dtype": {
			"type": "DT_FLOAT"
		  }
		}
	  },
	  {
		"name": "ae_encoder/res6/conv2d_8/kernel",
		"op": "Const",
		"attr": {
		  "value": {
			"tensor": {
			  "dtype": "DT_FLOAT",
			  "tensorShape": {
				"dim": [
				  {
					"size": "1"
				  },
				  {
					"size": "1"
				  },
				  {
					"size": "64"
				  },
				  {
					"size": "128"
				  }
				]
			  }
			}
		  },
		  "dtype": {
			"type": "DT_FLOAT"
		  }
		}
	  },
	  {
		"name": "ae_encoder/res6/separable_conv2d_4/depthwise_kernel",
		"op": "Const",
		"attr": {
		  "value": {
			"tensor": {
			  "dtype": "DT_FLOAT",
			  "tensorShape": {
				"dim": [
				  {
					"size": "3"
				  },
				  {
					"size": "3"
				  },
				  {
					"size": "64"
				  },
				  {
					"size": "1"
				  }
				]
			  }
			}
		  },
		  "dtype": {
			"type": "DT_FLOAT"
		  }
		}
	  },
	  {
		"name": "ae_encoder/res6/separable_conv2d_4/pointwise_kernel",
		"op": "Const",
		"attr": {
		  "value": {
			"tensor": {
			  "dtype": "DT_FLOAT",
			  "tensorShape": {
				"dim": [
				  {
					"size": "1"
				  },
				  {
					"size": "1"
				  },
				  {
					"size": "64"
				  },
				  {
					"size": "128"
				  }
				]
			  }
			}
		  },
		  "dtype": {
			"type": "DT_FLOAT"
		  }
		}
	  },
	  {
		"name": "ae_decoder/res8/conv2d_26/kernel",
		"op": "Const",
		"attr": {
		  "value": {
			"tensor": {
			  "dtype": "DT_FLOAT",
			  "tensorShape": {
				"dim": [
				  {
					"size": "1"
				  },
				  {
					"size": "1"
				  },
				  {
					"size": "64"
				  },
				  {
					"size": "64"
				  }
				]
			  }
			}
		  },
		  "dtype": {
			"type": "DT_FLOAT"
		  }
		}
	  },
	  {
		"name": "ae_encoder/res6/BatchNorm/Const",
		"op": "Const",
		"attr": {
		  "value": {
			"tensor": {
			  "dtype": "DT_FLOAT",
			  "tensorShape": {
				"dim": [
				  {
					"size": "128"
				  }
				]
			  }
			}
		  },
		  "dtype": {
			"type": "DT_FLOAT"
		  }
		}
	  },
	  {
		"name": "ae_encoder/res6/BatchNorm/beta",
		"op": "Const",
		"attr": {
		  "value": {
			"tensor": {
			  "dtype": "DT_FLOAT",
			  "tensorShape": {
				"dim": [
				  {
					"size": "128"
				  }
				]
			  }
			}
		  },
		  "dtype": {
			"type": "DT_FLOAT"
		  }
		}
	  },
	  {
		"name": "ae_encoder/res6/conv2d_9/kernel",
		"op": "Const",
		"attr": {
		  "value": {
			"tensor": {
			  "dtype": "DT_FLOAT",
			  "tensorShape": {
				"dim": [
				  {
					"size": "1"
				  },
				  {
					"size": "1"
				  },
				  {
					"size": "128"
				  },
				  {
					"size": "128"
				  }
				]
			  }
			}
		  },
		  "dtype": {
			"type": "DT_FLOAT"
		  }
		}
	  },
	  {
		"name": "ae_encoder/res6/BatchNorm_1/beta",
		"op": "Const",
		"attr": {
		  "value": {
			"tensor": {
			  "dtype": "DT_FLOAT",
			  "tensorShape": {
				"dim": [
				  {
					"size": "128"
				  }
				]
			  }
			}
		  },
		  "dtype": {
			"type": "DT_FLOAT"
		  }
		}
	  },
	  {
		"name": "ae_decoder/res8/separable_conv2d_13/depthwise_kernel",
		"op": "Const",
		"attr": {
		  "value": {
			"tensor": {
			  "dtype": "DT_FLOAT",
			  "tensorShape": {
				"dim": [
				  {
					"size": "3"
				  },
				  {
					"size": "3"
				  },
				  {
					"size": "64"
				  },
				  {
					"size": "1"
				  }
				]
			  }
			}
		  },
		  "dtype": {
			"type": "DT_FLOAT"
		  }
		}
	  },
	  {
		"name": "ae_encoder/res6/BatchNorm_2/beta",
		"op": "Const",
		"attr": {
		  "value": {
			"tensor": {
			  "dtype": "DT_FLOAT",
			  "tensorShape": {
				"dim": [
				  {
					"size": "128"
				  }
				]
			  }
			}
		  },
		  "dtype": {
			"type": "DT_FLOAT"
		  }
		}
	  },
	  {
		"name": "ae_decoder/res9/BatchNorm_2/beta",
		"op": "Const",
		"attr": {
		  "value": {
			"tensor": {
			  "dtype": "DT_FLOAT",
			  "tensorShape": {
				"dim": [
				  {
					"size": "32"
				  }
				]
			  }
			}
		  },
		  "dtype": {
			"type": "DT_FLOAT"
		  }
		}
	  },
	  {
		"name": "ae_encoder/res7/conv2d_10/kernel",
		"op": "Const",
		"attr": {
		  "value": {
			"tensor": {
			  "dtype": "DT_FLOAT",
			  "tensorShape": {
				"dim": [
				  {
					"size": "1"
				  },
				  {
					"size": "1"
				  },
				  {
					"size": "128"
				  },
				  {
					"size": "128"
				  }
				]
			  }
			}
		  },
		  "dtype": {
			"type": "DT_FLOAT"
		  }
		}
	  },
	  {
		"name": "ae_encoder/res7/separable_conv2d_5/depthwise_kernel",
		"op": "Const",
		"attr": {
		  "value": {
			"tensor": {
			  "dtype": "DT_FLOAT",
			  "tensorShape": {
				"dim": [
				  {
					"size": "3"
				  },
				  {
					"size": "3"
				  },
				  {
					"size": "128"
				  },
				  {
					"size": "1"
				  }
				]
			  }
			}
		  },
		  "dtype": {
			"type": "DT_FLOAT"
		  }
		}
	  },
	  {
		"name": "ae_decoder/res8/separable_conv2d_13/pointwise_kernel",
		"op": "Const",
		"attr": {
		  "value": {
			"tensor": {
			  "dtype": "DT_FLOAT",
			  "tensorShape": {
				"dim": [
				  {
					"size": "1"
				  },
				  {
					"size": "1"
				  },
				  {
					"size": "64"
				  },
				  {
					"size": "64"
				  }
				]
			  }
			}
		  },
		  "dtype": {
			"type": "DT_FLOAT"
		  }
		}
	  },
	  {
		"name": "ae_encoder/res7/separable_conv2d_5/pointwise_kernel",
		"op": "Const",
		"attr": {
		  "value": {
			"tensor": {
			  "dtype": "DT_FLOAT",
			  "tensorShape": {
				"dim": [
				  {
					"size": "1"
				  },
				  {
					"size": "1"
				  },
				  {
					"size": "128"
				  },
				  {
					"size": "128"
				  }
				]
			  }
			}
		  },
		  "dtype": {
			"type": "DT_FLOAT"
		  }
		}
	  },
	  {
		"name": "ae_encoder/res7/BatchNorm/beta",
		"op": "Const",
		"attr": {
		  "value": {
			"tensor": {
			  "dtype": "DT_FLOAT",
			  "tensorShape": {
				"dim": [
				  {
					"size": "128"
				  }
				]
			  }
			}
		  },
		  "dtype": {
			"type": "DT_FLOAT"
		  }
		}
	  },
	  {
		"name": "ae_encoder/res7/conv2d_11/kernel",
		"op": "Const",
		"attr": {
		  "value": {
			"tensor": {
			  "dtype": "DT_FLOAT",
			  "tensorShape": {
				"dim": [
				  {
					"size": "1"
				  },
				  {
					"size": "1"
				  },
				  {
					"size": "128"
				  },
				  {
					"size": "128"
				  }
				]
			  }
			}
		  },
		  "dtype": {
			"type": "DT_FLOAT"
		  }
		}
	  },
	  {
		"name": "ae_encoder/res7/BatchNorm_1/beta",
		"op": "Const",
		"attr": {
		  "value": {
			"tensor": {
			  "dtype": "DT_FLOAT",
			  "tensorShape": {
				"dim": [
				  {
					"size": "128"
				  }
				]
			  }
			}
		  },
		  "dtype": {
			"type": "DT_FLOAT"
		  }
		}
	  },
	  {
		"name": "ae_decoder/res8/BatchNorm/beta",
		"op": "Const",
		"attr": {
		  "value": {
			"tensor": {
			  "dtype": "DT_FLOAT",
			  "tensorShape": {
				"dim": [
				  {
					"size": "64"
				  }
				]
			  }
			}
		  },
		  "dtype": {
			"type": "DT_FLOAT"
		  }
		}
	  },
	  {
		"name": "ae_encoder/res7/BatchNorm_2/beta",
		"op": "Const",
		"attr": {
		  "value": {
			"tensor": {
			  "dtype": "DT_FLOAT",
			  "tensorShape": {
				"dim": [
				  {
					"size": "128"
				  }
				]
			  }
			}
		  },
		  "dtype": {
			"type": "DT_FLOAT"
		  }
		}
	  },
	  {
		"name": "ae_encoder/res8/conv2d_12/kernel",
		"op": "Const",
		"attr": {
		  "value": {
			"tensor": {
			  "dtype": "DT_FLOAT",
			  "tensorShape": {
				"dim": [
				  {
					"size": "1"
				  },
				  {
					"size": "1"
				  },
				  {
					"size": "128"
				  },
				  {
					"size": "256"
				  }
				]
			  }
			}
		  },
		  "dtype": {
			"type": "DT_FLOAT"
		  }
		}
	  },
	  {
		"name": "ae_encoder/res8/separable_conv2d_6/depthwise_kernel",
		"op": "Const",
		"attr": {
		  "value": {
			"tensor": {
			  "dtype": "DT_FLOAT",
			  "tensorShape": {
				"dim": [
				  {
					"size": "3"
				  },
				  {
					"size": "3"
				  },
				  {
					"size": "128"
				  },
				  {
					"size": "1"
				  }
				]
			  }
			}
		  },
		  "dtype": {
			"type": "DT_FLOAT"
		  }
		}
	  },
	  {
		"name": "ae_encoder/res8/separable_conv2d_6/pointwise_kernel",
		"op": "Const",
		"attr": {
		  "value": {
			"tensor": {
			  "dtype": "DT_FLOAT",
			  "tensorShape": {
				"dim": [
				  {
					"size": "1"
				  },
				  {
					"size": "1"
				  },
				  {
					"size": "128"
				  },
				  {
					"size": "256"
				  }
				]
			  }
			}
		  },
		  "dtype": {
			"type": "DT_FLOAT"
		  }
		}
	  },
	  {
		"name": "ae_encoder/res8/BatchNorm/Const",
		"op": "Const",
		"attr": {
		  "value": {
			"tensor": {
			  "dtype": "DT_FLOAT",
			  "tensorShape": {
				"dim": [
				  {
					"size": "256"
				  }
				]
			  }
			}
		  },
		  "dtype": {
			"type": "DT_FLOAT"
		  }
		}
	  },
	  {
		"name": "ae_encoder/res8/BatchNorm/beta",
		"op": "Const",
		"attr": {
		  "value": {
			"tensor": {
			  "dtype": "DT_FLOAT",
			  "tensorShape": {
				"dim": [
				  {
					"size": "256"
				  }
				]
			  }
			}
		  },
		  "dtype": {
			"type": "DT_FLOAT"
		  }
		}
	  },
	  {
		"name": "ae_encoder/res8/conv2d_13/kernel",
		"op": "Const",
		"attr": {
		  "value": {
			"tensor": {
			  "dtype": "DT_FLOAT",
			  "tensorShape": {
				"dim": [
				  {
					"size": "1"
				  },
				  {
					"size": "1"
				  },
				  {
					"size": "256"
				  },
				  {
					"size": "256"
				  }
				]
			  }
			}
		  },
		  "dtype": {
			"type": "DT_FLOAT"
		  }
		}
	  },
	  {
		"name": "ae_decoder/res8/conv2d_27/kernel",
		"op": "Const",
		"attr": {
		  "value": {
			"tensor": {
			  "dtype": "DT_FLOAT",
			  "tensorShape": {
				"dim": [
				  {
					"size": "1"
				  },
				  {
					"size": "1"
				  },
				  {
					"size": "64"
				  },
				  {
					"size": "64"
				  }
				]
			  }
			}
		  },
		  "dtype": {
			"type": "DT_FLOAT"
		  }
		}
	  },
	  {
		"name": "ae_encoder/res8/BatchNorm_1/beta",
		"op": "Const",
		"attr": {
		  "value": {
			"tensor": {
			  "dtype": "DT_FLOAT",
			  "tensorShape": {
				"dim": [
				  {
					"size": "256"
				  }
				]
			  }
			}
		  },
		  "dtype": {
			"type": "DT_FLOAT"
		  }
		}
	  },
	  {
		"name": "ae_encoder/res8/BatchNorm_2/beta",
		"op": "Const",
		"attr": {
		  "value": {
			"tensor": {
			  "dtype": "DT_FLOAT",
			  "tensorShape": {
				"dim": [
				  {
					"size": "256"
				  }
				]
			  }
			}
		  },
		  "dtype": {
			"type": "DT_FLOAT"
		  }
		}
	  },
	  {
		"name": "ae_encoder/res9/conv2d_14/kernel",
		"op": "Const",
		"attr": {
		  "value": {
			"tensor": {
			  "dtype": "DT_FLOAT",
			  "tensorShape": {
				"dim": [
				  {
					"size": "1"
				  },
				  {
					"size": "1"
				  },
				  {
					"size": "256"
				  },
				  {
					"size": "256"
				  }
				]
			  }
			}
		  },
		  "dtype": {
			"type": "DT_FLOAT"
		  }
		}
	  },
	  {
		"name": "ae_encoder/res9/separable_conv2d_7/depthwise_kernel",
		"op": "Const",
		"attr": {
		  "value": {
			"tensor": {
			  "dtype": "DT_FLOAT",
			  "tensorShape": {
				"dim": [
				  {
					"size": "3"
				  },
				  {
					"size": "3"
				  },
				  {
					"size": "256"
				  },
				  {
					"size": "1"
				  }
				]
			  }
			}
		  },
		  "dtype": {
			"type": "DT_FLOAT"
		  }
		}
	  },
	  {
		"name": "ae_decoder/res8/BatchNorm_1/beta",
		"op": "Const",
		"attr": {
		  "value": {
			"tensor": {
			  "dtype": "DT_FLOAT",
			  "tensorShape": {
				"dim": [
				  {
					"size": "64"
				  }
				]
			  }
			}
		  },
		  "dtype": {
			"type": "DT_FLOAT"
		  }
		}
	  },
	  {
		"name": "ae_encoder/res9/separable_conv2d_7/pointwise_kernel",
		"op": "Const",
		"attr": {
		  "value": {
			"tensor": {
			  "dtype": "DT_FLOAT",
			  "tensorShape": {
				"dim": [
				  {
					"size": "1"
				  },
				  {
					"size": "1"
				  },
				  {
					"size": "256"
				  },
				  {
					"size": "256"
				  }
				]
			  }
			}
		  },
		  "dtype": {
			"type": "DT_FLOAT"
		  }
		}
	  },
	  {
		"name": "ae_encoder/res9/BatchNorm/beta",
		"op": "Const",
		"attr": {
		  "value": {
			"tensor": {
			  "dtype": "DT_FLOAT",
			  "tensorShape": {
				"dim": [
				  {
					"size": "256"
				  }
				]
			  }
			}
		  },
		  "dtype": {
			"type": "DT_FLOAT"
		  }
		}
	  },
	  {
		"name": "ae_encoder/res9/conv2d_15/kernel",
		"op": "Const",
		"attr": {
		  "value": {
			"tensor": {
			  "dtype": "DT_FLOAT",
			  "tensorShape": {
				"dim": [
				  {
					"size": "1"
				  },
				  {
					"size": "1"
				  },
				  {
					"size": "256"
				  },
				  {
					"size": "256"
				  }
				]
			  }
			}
		  },
		  "dtype": {
			"type": "DT_FLOAT"
		  }
		}
	  },
	  {
		"name": "ae_encoder/res9/BatchNorm_1/beta",
		"op": "Const",
		"attr": {
		  "value": {
			"tensor": {
			  "dtype": "DT_FLOAT",
			  "tensorShape": {
				"dim": [
				  {
					"size": "256"
				  }
				]
			  }
			}
		  },
		  "dtype": {
			"type": "DT_FLOAT"
		  }
		}
	  },
	  {
		"name": "ae_encoder/res9/BatchNorm_2/beta",
		"op": "Const",
		"attr": {
		  "value": {
			"tensor": {
			  "dtype": "DT_FLOAT",
			  "tensorShape": {
				"dim": [
				  {
					"size": "256"
				  }
				]
			  }
			}
		  },
		  "dtype": {
			"type": "DT_FLOAT"
		  }
		}
	  },
	  {
		"name": "ae_encoder/Reshape/shape",
		"op": "Const",
		"attr": {
		  "value": {
			"tensor": {
			  "dtype": "DT_INT32",
			  "tensorShape": {
				"dim": [
				  {
					"size": "2"
				  }
				]
			  }
			}
		  },
		  "dtype": {
			"type": "DT_INT32"
		  }
		}
	  },
	  {
		"name": "ae_encoder/fc_bottleneck/fc/kernel",
		"op": "Const",
		"attr": {
		  "value": {
			"tensor": {
			  "dtype": "DT_FLOAT",
			  "tensorShape": {
				"dim": [
				  {
					"size": "4096"
				  },
				  {
					"size": "256"
				  }
				]
			  }
			}
		  },
		  "dtype": {
			"type": "DT_FLOAT"
		  }
		}
	  },
	  {
		"name": "ConstantFolding/ae_decoder/truediv_recip",
		"op": "Const",
		"attr": {
		  "value": {
			"tensor": {
			  "dtype": "DT_FLOAT",
			  "tensorShape": {}
			}
		  },
		  "dtype": {
			"type": "DT_FLOAT"
		  }
		}
	  },
	  {
		"name": "ae_encoder/fc_bottleneck/fc/bias",
		"op": "Const",
		"attr": {
		  "value": {
			"tensor": {
			  "dtype": "DT_FLOAT",
			  "tensorShape": {
				"dim": [
				  {
					"size": "256"
				  }
				]
			  }
			}
		  },
		  "dtype": {
			"type": "DT_FLOAT"
		  }
		}
	  },
	  {
		"name": "ae_decoder/res8/BatchNorm_2/beta",
		"op": "Const",
		"attr": {
		  "value": {
			"tensor": {
			  "dtype": "DT_FLOAT",
			  "tensorShape": {
				"dim": [
				  {
					"size": "64"
				  }
				]
			  }
			}
		  },
		  "dtype": {
			"type": "DT_FLOAT"
		  }
		}
	  },
	  {
		"name": "ae_encoder/fc_bottleneck/BatchNorm/Reshape/shape",
		"op": "Const",
		"attr": {
		  "value": {
			"tensor": {
			  "dtype": "DT_INT32",
			  "tensorShape": {
				"dim": [
				  {
					"size": "4"
				  }
				]
			  }
			}
		  },
		  "dtype": {
			"type": "DT_INT32"
		  }
		}
	  },
	  {
		"name": "ae_encoder/fc_bottleneck/BatchNorm/beta",
		"op": "Const",
		"attr": {
		  "value": {
			"tensor": {
			  "dtype": "DT_FLOAT",
			  "tensorShape": {
				"dim": [
				  {
					"size": "256"
				  }
				]
			  }
			}
		  },
		  "dtype": {
			"type": "DT_FLOAT"
		  }
		}
	  },
	  {
		"name": "Placeholder_1",
		"op": "Placeholder",
		"attr": {
		  "shape": {
			"shape": {}
		  },
		  "dtype": {
			"type": "DT_FLOAT"
		  }
		}
	  },
	  {
		"name": "strided_slice/stack",
		"op": "Const",
		"attr": {
		  "value": {
			"tensor": {
			  "dtype": "DT_INT32",
			  "tensorShape": {
				"dim": [
				  {
					"size": "1"
				  }
				]
			  }
			}
		  },
		  "dtype": {
			"type": "DT_INT32"
		  }
		}
	  },
	  {
		"name": "strided_slice/stack_2",
		"op": "Const",
		"attr": {
		  "value": {
			"tensor": {
			  "dtype": "DT_INT32",
			  "tensorShape": {
				"dim": [
				  {
					"size": "1"
				  }
				]
			  }
			}
		  },
		  "dtype": {
			"type": "DT_INT32"
		  }
		}
	  },
	  {
		"name": "sub/x",
		"op": "Const",
		"attr": {
		  "value": {
			"tensor": {
			  "dtype": "DT_FLOAT",
			  "tensorShape": {}
			}
		  },
		  "dtype": {
			"type": "DT_FLOAT"
		  }
		}
	  },
	  {
		"name": "strided_slice_1/stack",
		"op": "Const",
		"attr": {
		  "value": {
			"tensor": {
			  "dtype": "DT_INT32",
			  "tensorShape": {
				"dim": [
				  {
					"size": "1"
				  }
				]
			  }
			}
		  },
		  "dtype": {
			"type": "DT_INT32"
		  }
		}
	  },
	  {
		"name": "ae_decoder/fc_recon/fc/kernel",
		"op": "Const",
		"attr": {
		  "value": {
			"tensor": {
			  "dtype": "DT_FLOAT",
			  "tensorShape": {
				"dim": [
				  {
					"size": "256"
				  },
				  {
					"size": "4096"
				  }
				]
			  }
			}
		  },
		  "dtype": {
			"type": "DT_FLOAT"
		  }
		}
	  },
	  {
		"name": "ae_decoder/fc_recon/fc/bias",
		"op": "Const",
		"attr": {
		  "value": {
			"tensor": {
			  "dtype": "DT_FLOAT",
			  "tensorShape": {
				"dim": [
				  {
					"size": "4096"
				  }
				]
			  }
			}
		  },
		  "dtype": {
			"type": "DT_FLOAT"
		  }
		}
	  },
	  {
		"name": "ae_decoder/fc_recon/BatchNorm/Reshape/shape",
		"op": "Const",
		"attr": {
		  "value": {
			"tensor": {
			  "dtype": "DT_INT32",
			  "tensorShape": {
				"dim": [
				  {
					"size": "4"
				  }
				]
			  }
			}
		  },
		  "dtype": {
			"type": "DT_INT32"
		  }
		}
	  },
	  {
		"name": "ae_decoder/fc_recon/BatchNorm/beta",
		"op": "Const",
		"attr": {
		  "value": {
			"tensor": {
			  "dtype": "DT_FLOAT",
			  "tensorShape": {
				"dim": [
				  {
					"size": "4096"
				  }
				]
			  }
			}
		  },
		  "dtype": {
			"type": "DT_FLOAT"
		  }
		}
	  },
	  {
		"name": "ae_decoder/fc_recon/BatchNorm/Const",
		"op": "Const",
		"attr": {
		  "value": {
			"tensor": {
			  "dtype": "DT_FLOAT",
			  "tensorShape": {
				"dim": [
				  {
					"size": "4096"
				  }
				]
			  }
			}
		  },
		  "dtype": {
			"type": "DT_FLOAT"
		  }
		}
	  },
	  {
		"name": "ae_decoder/Reshape/shape",
		"op": "Const",
		"attr": {
		  "value": {
			"tensor": {
			  "dtype": "DT_INT32",
			  "tensorShape": {
				"dim": [
				  {
					"size": "4"
				  }
				]
			  }
			}
		  },
		  "dtype": {
			"type": "DT_INT32"
		  }
		}
	  },
	  {
		"name": "ae_decoder/res1/conv2d_16/kernel",
		"op": "Const",
		"attr": {
		  "value": {
			"tensor": {
			  "dtype": "DT_FLOAT",
			  "tensorShape": {
				"dim": [
				  {
					"size": "1"
				  },
				  {
					"size": "1"
				  },
				  {
					"size": "256"
				  },
				  {
					"size": "256"
				  }
				]
			  }
			}
		  },
		  "dtype": {
			"type": "DT_FLOAT"
		  }
		}
	  },
	  {
		"name": "ae_decoder/res1/separable_conv2d_8/depthwise_kernel",
		"op": "Const",
		"attr": {
		  "value": {
			"tensor": {
			  "dtype": "DT_FLOAT",
			  "tensorShape": {
				"dim": [
				  {
					"size": "3"
				  },
				  {
					"size": "3"
				  },
				  {
					"size": "256"
				  },
				  {
					"size": "1"
				  }
				]
			  }
			}
		  },
		  "dtype": {
			"type": "DT_FLOAT"
		  }
		}
	  },
	  {
		"name": "ae_decoder/res1/separable_conv2d_8/pointwise_kernel",
		"op": "Const",
		"attr": {
		  "value": {
			"tensor": {
			  "dtype": "DT_FLOAT",
			  "tensorShape": {
				"dim": [
				  {
					"size": "1"
				  },
				  {
					"size": "1"
				  },
				  {
					"size": "256"
				  },
				  {
					"size": "256"
				  }
				]
			  }
			}
		  },
		  "dtype": {
			"type": "DT_FLOAT"
		  }
		}
	  },
	  {
		"name": "ae_decoder/res1/BatchNorm/beta",
		"op": "Const",
		"attr": {
		  "value": {
			"tensor": {
			  "dtype": "DT_FLOAT",
			  "tensorShape": {
				"dim": [
				  {
					"size": "256"
				  }
				]
			  }
			}
		  },
		  "dtype": {
			"type": "DT_FLOAT"
		  }
		}
	  },
	  {
		"name": "ae_decoder/up_sampling2d_3/strided_slice/stack_1",
		"op": "Const",
		"attr": {
		  "value": {
			"tensor": {
			  "dtype": "DT_INT32",
			  "tensorShape": {
				"dim": [
				  {
					"size": "1"
				  }
				]
			  }
			}
		  },
		  "dtype": {
			"type": "DT_INT32"
		  }
		}
	  },
	  {
		"name": "ae_decoder/res1/conv2d_17/kernel",
		"op": "Const",
		"attr": {
		  "value": {
			"tensor": {
			  "dtype": "DT_FLOAT",
			  "tensorShape": {
				"dim": [
				  {
					"size": "1"
				  },
				  {
					"size": "1"
				  },
				  {
					"size": "256"
				  },
				  {
					"size": "256"
				  }
				]
			  }
			}
		  },
		  "dtype": {
			"type": "DT_FLOAT"
		  }
		}
	  },
	  {
		"name": "ae_decoder/res1/BatchNorm_1/beta",
		"op": "Const",
		"attr": {
		  "value": {
			"tensor": {
			  "dtype": "DT_FLOAT",
			  "tensorShape": {
				"dim": [
				  {
					"size": "256"
				  }
				]
			  }
			}
		  },
		  "dtype": {
			"type": "DT_FLOAT"
		  }
		}
	  },
	  {
		"name": "ae_decoder/res1/BatchNorm_2/beta",
		"op": "Const",
		"attr": {
		  "value": {
			"tensor": {
			  "dtype": "DT_FLOAT",
			  "tensorShape": {
				"dim": [
				  {
					"size": "256"
				  }
				]
			  }
			}
		  },
		  "dtype": {
			"type": "DT_FLOAT"
		  }
		}
	  },
	  {
		"name": "ae_decoder/up_sampling2d_3/Const",
		"op": "Const",
		"attr": {
		  "value": {
			"tensor": {
			  "dtype": "DT_INT32",
			  "tensorShape": {
				"dim": [
				  {
					"size": "2"
				  }
				]
			  }
			}
		  },
		  "dtype": {
			"type": "DT_INT32"
		  }
		}
	  },
	  {
		"name": "ae_decoder/res2/conv2d_18/kernel",
		"op": "Const",
		"attr": {
		  "value": {
			"tensor": {
			  "dtype": "DT_FLOAT",
			  "tensorShape": {
				"dim": [
				  {
					"size": "1"
				  },
				  {
					"size": "1"
				  },
				  {
					"size": "256"
				  },
				  {
					"size": "256"
				  }
				]
			  }
			}
		  },
		  "dtype": {
			"type": "DT_FLOAT"
		  }
		}
	  },
	  {
		"name": "ae_decoder/res2/separable_conv2d_9/depthwise_kernel",
		"op": "Const",
		"attr": {
		  "value": {
			"tensor": {
			  "dtype": "DT_FLOAT",
			  "tensorShape": {
				"dim": [
				  {
					"size": "3"
				  },
				  {
					"size": "3"
				  },
				  {
					"size": "256"
				  },
				  {
					"size": "1"
				  }
				]
			  }
			}
		  },
		  "dtype": {
			"type": "DT_FLOAT"
		  }
		}
	  },
	  {
		"name": "ae_decoder/res2/separable_conv2d_9/pointwise_kernel",
		"op": "Const",
		"attr": {
		  "value": {
			"tensor": {
			  "dtype": "DT_FLOAT",
			  "tensorShape": {
				"dim": [
				  {
					"size": "1"
				  },
				  {
					"size": "1"
				  },
				  {
					"size": "256"
				  },
				  {
					"size": "256"
				  }
				]
			  }
			}
		  },
		  "dtype": {
			"type": "DT_FLOAT"
		  }
		}
	  },
	  {
		"name": "ae_decoder/res9/conv2d_28/kernel",
		"op": "Const",
		"attr": {
		  "value": {
			"tensor": {
			  "dtype": "DT_FLOAT",
			  "tensorShape": {
				"dim": [
				  {
					"size": "1"
				  },
				  {
					"size": "1"
				  },
				  {
					"size": "64"
				  },
				  {
					"size": "32"
				  }
				]
			  }
			}
		  },
		  "dtype": {
			"type": "DT_FLOAT"
		  }
		}
	  },
	  {
		"name": "ae_decoder/res2/BatchNorm/beta",
		"op": "Const",
		"attr": {
		  "value": {
			"tensor": {
			  "dtype": "DT_FLOAT",
			  "tensorShape": {
				"dim": [
				  {
					"size": "256"
				  }
				]
			  }
			}
		  },
		  "dtype": {
			"type": "DT_FLOAT"
		  }
		}
	  },
	  {
		"name": "ae_decoder/conv10/conv/kernel",
		"op": "Const",
		"attr": {
		  "value": {
			"tensor": {
			  "dtype": "DT_FLOAT",
			  "tensorShape": {
				"dim": [
				  {
					"size": "7"
				  },
				  {
					"size": "7"
				  },
				  {
					"size": "32"
				  },
				  {
					"size": "1"
				  }
				]
			  }
			}
		  },
		  "dtype": {
			"type": "DT_FLOAT"
		  }
		}
	  },
	  {
		"name": "ae_decoder/res2/conv2d_19/kernel",
		"op": "Const",
		"attr": {
		  "value": {
			"tensor": {
			  "dtype": "DT_FLOAT",
			  "tensorShape": {
				"dim": [
				  {
					"size": "1"
				  },
				  {
					"size": "1"
				  },
				  {
					"size": "256"
				  },
				  {
					"size": "256"
				  }
				]
			  }
			}
		  },
		  "dtype": {
			"type": "DT_FLOAT"
		  }
		}
	  },
	  {
		"name": "ae_decoder/res2/BatchNorm_1/beta",
		"op": "Const",
		"attr": {
		  "value": {
			"tensor": {
			  "dtype": "DT_FLOAT",
			  "tensorShape": {
				"dim": [
				  {
					"size": "256"
				  }
				]
			  }
			}
		  },
		  "dtype": {
			"type": "DT_FLOAT"
		  }
		}
	  },
	  {
		"name": "ae_decoder/res9/separable_conv2d_14/depthwise_kernel",
		"op": "Const",
		"attr": {
		  "value": {
			"tensor": {
			  "dtype": "DT_FLOAT",
			  "tensorShape": {
				"dim": [
				  {
					"size": "3"
				  },
				  {
					"size": "3"
				  },
				  {
					"size": "64"
				  },
				  {
					"size": "1"
				  }
				]
			  }
			}
		  },
		  "dtype": {
			"type": "DT_FLOAT"
		  }
		}
	  },
	  {
		"name": "ae_decoder/res2/BatchNorm_2/beta",
		"op": "Const",
		"attr": {
		  "value": {
			"tensor": {
			  "dtype": "DT_FLOAT",
			  "tensorShape": {
				"dim": [
				  {
					"size": "256"
				  }
				]
			  }
			}
		  },
		  "dtype": {
			"type": "DT_FLOAT"
		  }
		}
	  },
	  {
		"name": "ae_decoder/res3/conv2d_20/kernel",
		"op": "Const",
		"attr": {
		  "value": {
			"tensor": {
			  "dtype": "DT_FLOAT",
			  "tensorShape": {
				"dim": [
				  {
					"size": "1"
				  },
				  {
					"size": "1"
				  },
				  {
					"size": "256"
				  },
				  {
					"size": "128"
				  }
				]
			  }
			}
		  },
		  "dtype": {
			"type": "DT_FLOAT"
		  }
		}
	  },
	  {
		"name": "ae_decoder/res3/separable_conv2d_10/depthwise_kernel",
		"op": "Const",
		"attr": {
		  "value": {
			"tensor": {
			  "dtype": "DT_FLOAT",
			  "tensorShape": {
				"dim": [
				  {
					"size": "3"
				  },
				  {
					"size": "3"
				  },
				  {
					"size": "256"
				  },
				  {
					"size": "1"
				  }
				]
			  }
			}
		  },
		  "dtype": {
			"type": "DT_FLOAT"
		  }
		}
	  },
	  {
		"name": "ae_decoder/res9/separable_conv2d_14/pointwise_kernel",
		"op": "Const",
		"attr": {
		  "value": {
			"tensor": {
			  "dtype": "DT_FLOAT",
			  "tensorShape": {
				"dim": [
				  {
					"size": "1"
				  },
				  {
					"size": "1"
				  },
				  {
					"size": "64"
				  },
				  {
					"size": "32"
				  }
				]
			  }
			}
		  },
		  "dtype": {
			"type": "DT_FLOAT"
		  }
		}
	  },
	  {
		"name": "ae_decoder/res3/separable_conv2d_10/pointwise_kernel",
		"op": "Const",
		"attr": {
		  "value": {
			"tensor": {
			  "dtype": "DT_FLOAT",
			  "tensorShape": {
				"dim": [
				  {
					"size": "1"
				  },
				  {
					"size": "1"
				  },
				  {
					"size": "256"
				  },
				  {
					"size": "128"
				  }
				]
			  }
			}
		  },
		  "dtype": {
			"type": "DT_FLOAT"
		  }
		}
	  },
	  {
		"name": "ae_decoder/res3/BatchNorm/beta",
		"op": "Const",
		"attr": {
		  "value": {
			"tensor": {
			  "dtype": "DT_FLOAT",
			  "tensorShape": {
				"dim": [
				  {
					"size": "128"
				  }
				]
			  }
			}
		  },
		  "dtype": {
			"type": "DT_FLOAT"
		  }
		}
	  },
	  {
		"name": "ae_decoder/res3/conv2d_21/kernel",
		"op": "Const",
		"attr": {
		  "value": {
			"tensor": {
			  "dtype": "DT_FLOAT",
			  "tensorShape": {
				"dim": [
				  {
					"size": "1"
				  },
				  {
					"size": "1"
				  },
				  {
					"size": "128"
				  },
				  {
					"size": "128"
				  }
				]
			  }
			}
		  },
		  "dtype": {
			"type": "DT_FLOAT"
		  }
		}
	  },
	  {
		"name": "ae_decoder/res3/BatchNorm_1/beta",
		"op": "Const",
		"attr": {
		  "value": {
			"tensor": {
			  "dtype": "DT_FLOAT",
			  "tensorShape": {
				"dim": [
				  {
					"size": "128"
				  }
				]
			  }
			}
		  },
		  "dtype": {
			"type": "DT_FLOAT"
		  }
		}
	  },
	  {
		"name": "ae_decoder/res9/BatchNorm/beta",
		"op": "Const",
		"attr": {
		  "value": {
			"tensor": {
			  "dtype": "DT_FLOAT",
			  "tensorShape": {
				"dim": [
				  {
					"size": "32"
				  }
				]
			  }
			}
		  },
		  "dtype": {
			"type": "DT_FLOAT"
		  }
		}
	  },
	  {
		"name": "ae_decoder/res3/BatchNorm_2/beta",
		"op": "Const",
		"attr": {
		  "value": {
			"tensor": {
			  "dtype": "DT_FLOAT",
			  "tensorShape": {
				"dim": [
				  {
					"size": "128"
				  }
				]
			  }
			}
		  },
		  "dtype": {
			"type": "DT_FLOAT"
		  }
		}
	  },
	  {
		"name": "ae_decoder/res4/conv2d_22/kernel",
		"op": "Const",
		"attr": {
		  "value": {
			"tensor": {
			  "dtype": "DT_FLOAT",
			  "tensorShape": {
				"dim": [
				  {
					"size": "1"
				  },
				  {
					"size": "1"
				  },
				  {
					"size": "128"
				  },
				  {
					"size": "128"
				  }
				]
			  }
			}
		  },
		  "dtype": {
			"type": "DT_FLOAT"
		  }
		}
	  },
	  {
		"name": "ae_decoder/res4/separable_conv2d_11/depthwise_kernel",
		"op": "Const",
		"attr": {
		  "value": {
			"tensor": {
			  "dtype": "DT_FLOAT",
			  "tensorShape": {
				"dim": [
				  {
					"size": "3"
				  },
				  {
					"size": "3"
				  },
				  {
					"size": "128"
				  },
				  {
					"size": "1"
				  }
				]
			  }
			}
		  },
		  "dtype": {
			"type": "DT_FLOAT"
		  }
		}
	  },
	  {
		"name": "ae_decoder/res4/separable_conv2d_11/pointwise_kernel",
		"op": "Const",
		"attr": {
		  "value": {
			"tensor": {
			  "dtype": "DT_FLOAT",
			  "tensorShape": {
				"dim": [
				  {
					"size": "1"
				  },
				  {
					"size": "1"
				  },
				  {
					"size": "128"
				  },
				  {
					"size": "128"
				  }
				]
			  }
			}
		  },
		  "dtype": {
			"type": "DT_FLOAT"
		  }
		}
	  },
	  {
		"name": "ae_decoder/res4/BatchNorm/beta",
		"op": "Const",
		"attr": {
		  "value": {
			"tensor": {
			  "dtype": "DT_FLOAT",
			  "tensorShape": {
				"dim": [
				  {
					"size": "128"
				  }
				]
			  }
			}
		  },
		  "dtype": {
			"type": "DT_FLOAT"
		  }
		}
	  },
	  {
		"name": "ae_decoder/res4/conv2d_23/kernel",
		"op": "Const",
		"attr": {
		  "value": {
			"tensor": {
			  "dtype": "DT_FLOAT",
			  "tensorShape": {
				"dim": [
				  {
					"size": "1"
				  },
				  {
					"size": "1"
				  },
				  {
					"size": "128"
				  },
				  {
					"size": "128"
				  }
				]
			  }
			}
		  },
		  "dtype": {
			"type": "DT_FLOAT"
		  }
		}
	  },
	  {
		"name": "ae_decoder/res9/conv2d_29/kernel",
		"op": "Const",
		"attr": {
		  "value": {
			"tensor": {
			  "dtype": "DT_FLOAT",
			  "tensorShape": {
				"dim": [
				  {
					"size": "1"
				  },
				  {
					"size": "1"
				  },
				  {
					"size": "32"
				  },
				  {
					"size": "32"
				  }
				]
			  }
			}
		  },
		  "dtype": {
			"type": "DT_FLOAT"
		  }
		}
	  },
	  {
		"name": "ae_decoder/res4/BatchNorm_1/beta",
		"op": "Const",
		"attr": {
		  "value": {
			"tensor": {
			  "dtype": "DT_FLOAT",
			  "tensorShape": {
				"dim": [
				  {
					"size": "128"
				  }
				]
			  }
			}
		  },
		  "dtype": {
			"type": "DT_FLOAT"
		  }
		}
	  },
	  {
		"name": "ae_decoder/res4/BatchNorm_2/beta",
		"op": "Const",
		"attr": {
		  "value": {
			"tensor": {
			  "dtype": "DT_FLOAT",
			  "tensorShape": {
				"dim": [
				  {
					"size": "128"
				  }
				]
			  }
			}
		  },
		  "dtype": {
			"type": "DT_FLOAT"
		  }
		}
	  },
	  {
		"name": "ae_decoder/res6/conv2d_24/kernel",
		"op": "Const",
		"attr": {
		  "value": {
			"tensor": {
			  "dtype": "DT_FLOAT",
			  "tensorShape": {
				"dim": [
				  {
					"size": "1"
				  },
				  {
					"size": "1"
				  },
				  {
					"size": "128"
				  },
				  {
					"size": "64"
				  }
				]
			  }
			}
		  },
		  "dtype": {
			"type": "DT_FLOAT"
		  }
		}
	  },
	  {
		"name": "Reshape",
		"op": "Reshape",
		"input": [
		  "Placeholder",
		  "Reshape/shape"
		],
		"attr": {
		  "T": {
			"type": "DT_FLOAT"
		  },
		  "Tshape": {
			"type": "DT_INT32"
		  }
		}
	  },
	  {
		"name": "sub",
		"op": "Sub",
		"input": [
		  "sub/x",
		  "Placeholder_1"
		],
		"attr": {
		  "T": {
			"type": "DT_FLOAT"
		  }
		}
	  },
	  {
		"name": "ae_encoder/res1/conv2d/Conv2D",
		"op": "Conv2D",
		"input": [
		  "Reshape",
		  "ae_encoder/res1/conv2d/kernel"
		],
		"device": "/device:CPU:0",
		"attr": {
		  "dilations": {
			"list": {
			  "i": [
				"1",
				"1",
				"1",
				"1"
			  ]
			}
		  },
		  "T": {
			"type": "DT_FLOAT"
		  },
		  "strides": {
			"list": {
			  "i": [
				"1",
				"2",
				"2",
				"1"
			  ]
			}
		  },
		  "data_format": {
			"s": "TkhXQw=="
		  },
		  "use_cudnn_on_gpu": {
			"b": true
		  },
		  "explicit_paddings": {
			"list": {}
		  },
		  "padding": {
			"s": "U0FNRQ=="
		  }
		}
	  },
	  {
		"name": "ae_encoder/res1/separable_conv2d/separable_conv2d/depthwise",
		"op": "DepthwiseConv2dNative",
		"input": [
		  "Reshape",
		  "ae_encoder/res1/separable_conv2d/depthwise_kernel"
		],
		"attr": {
		  "padding": {
			"s": "U0FNRQ=="
		  },
		  "dilations": {
			"list": {
			  "i": [
				"1",
				"1",
				"1",
				"1"
			  ]
			}
		  },
		  "T": {
			"type": "DT_FLOAT"
		  },
		  "strides": {
			"list": {
			  "i": [
				"1",
				"2",
				"2",
				"1"
			  ]
			}
		  },
		  "data_format": {
			"s": "TkhXQw=="
		  }
		}
	  },
	  {
		"name": "ae_encoder/res1/BatchNorm_2/FusedBatchNormV3",
		"op": "FusedBatchNormV3",
		"input": [
		  "ae_encoder/res1/conv2d/Conv2D",
		  "ae_encoder/res1/BatchNorm/Const",
		  "ae_encoder/res1/BatchNorm_2/beta",
		  "ae_encoder/res1/BatchNorm/Const_1",
		  "ae_encoder/res1/BatchNorm/Const_1"
		],
		"attr": {
		  "epsilon": {
			"f": 0.0010000000474974513
		  },
		  "T": {
			"type": "DT_FLOAT"
		  },
		  "U": {
			"type": "DT_FLOAT"
		  },
		  "data_format": {
			"s": "TkhXQw=="
		  },
		  "is_training": {
			"b": true
		  }
		}
	  },
	  {
		"name": "ae_encoder/res1/separable_conv2d/separable_conv2d",
		"op": "Conv2D",
		"input": [
		  "ae_encoder/res1/separable_conv2d/separable_conv2d/depthwise",
		  "ae_encoder/res1/separable_conv2d/pointwise_kernel"
		],
		"device": "/device:CPU:0",
		"attr": {
		  "dilations": {
			"list": {
			  "i": [
				"1",
				"1",
				"1",
				"1"
			  ]
			}
		  },
		  "T": {
			"type": "DT_FLOAT"
		  },
		  "data_format": {
			"s": "TkhXQw=="
		  },
		  "strides": {
			"list": {
			  "i": [
				"1",
				"1",
				"1",
				"1"
			  ]
			}
		  },
		  "use_cudnn_on_gpu": {
			"b": true
		  },
		  "explicit_paddings": {
			"list": {}
		  },
		  "padding": {
			"s": "VkFMSUQ="
		  }
		}
	  },
	  {
		"name": "ae_encoder/res1/BatchNorm/FusedBatchNormV3",
		"op": "FusedBatchNormV3",
		"input": [
		  "ae_encoder/res1/separable_conv2d/separable_conv2d",
		  "ae_encoder/res1/BatchNorm/Const",
		  "ae_encoder/res1/BatchNorm/beta",
		  "ae_encoder/res1/BatchNorm/Const_1",
		  "ae_encoder/res1/BatchNorm/Const_1"
		],
		"attr": {
		  "epsilon": {
			"f": 0.0010000000474974513
		  },
		  "T": {
			"type": "DT_FLOAT"
		  },
		  "U": {
			"type": "DT_FLOAT"
		  },
		  "data_format": {
			"s": "TkhXQw=="
		  },
		  "is_training": {
			"b": true
		  }
		}
	  },
	  {
		"name": "ae_encoder/res1/LeakyRelu",
		"op": "LeakyRelu",
		"input": [
		  "ae_encoder/res1/BatchNorm/FusedBatchNormV3"
		],
		"attr": {
		  "T": {
			"type": "DT_FLOAT"
		  },
		  "alpha": {
			"f": 0.20000000298023224
		  }
		}
	  },
	  {
		"name": "ae_encoder/res1/conv2d_1/Conv2D",
		"op": "Conv2D",
		"input": [
		  "ae_encoder/res1/LeakyRelu",
		  "ae_encoder/res1/conv2d_1/kernel"
		],
		"device": "/device:CPU:0",
		"attr": {
		  "dilations": {
			"list": {
			  "i": [
				"1",
				"1",
				"1",
				"1"
			  ]
			}
		  },
		  "T": {
			"type": "DT_FLOAT"
		  },
		  "strides": {
			"list": {
			  "i": [
				"1",
				"1",
				"1",
				"1"
			  ]
			}
		  },
		  "data_format": {
			"s": "TkhXQw=="
		  },
		  "explicit_paddings": {
			"list": {}
		  },
		  "use_cudnn_on_gpu": {
			"b": true
		  },
		  "padding": {
			"s": "U0FNRQ=="
		  }
		}
	  },
	  {
		"name": "ae_encoder/res1/BatchNorm_1/FusedBatchNormV3",
		"op": "FusedBatchNormV3",
		"input": [
		  "ae_encoder/res1/conv2d_1/Conv2D",
		  "ae_encoder/res1/BatchNorm/Const",
		  "ae_encoder/res1/BatchNorm_1/beta",
		  "ae_encoder/res1/BatchNorm/Const_1",
		  "ae_encoder/res1/BatchNorm/Const_1"
		],
		"attr": {
		  "epsilon": {
			"f": 0.0010000000474974513
		  },
		  "T": {
			"type": "DT_FLOAT"
		  },
		  "U": {
			"type": "DT_FLOAT"
		  },
		  "data_format": {
			"s": "TkhXQw=="
		  },
		  "is_training": {
			"b": true
		  }
		}
	  },
	  {
		"name": "ae_encoder/res1/LeakyRelu_1",
		"op": "LeakyRelu",
		"input": [
		  "ae_encoder/res1/BatchNorm_1/FusedBatchNormV3"
		],
		"attr": {
		  "T": {
			"type": "DT_FLOAT"
		  },
		  "alpha": {
			"f": 0.20000000298023224
		  }
		}
	  },
	  {
		"name": "ae_encoder/res1/Add",
		"op": "Add",
		"input": [
		  "ae_encoder/res1/BatchNorm_2/FusedBatchNormV3",
		  "ae_encoder/res1/LeakyRelu_1"
		],
		"attr": {
		  "T": {
			"type": "DT_FLOAT"
		  }
		}
	  },
	  {
		"name": "ae_encoder/res2/conv2d_2/Conv2D",
		"op": "Conv2D",
		"input": [
		  "ae_encoder/res1/Add",
		  "ae_encoder/res2/conv2d_2/kernel"
		],
		"device": "/device:CPU:0",
		"attr": {
		  "dilations": {
			"list": {
			  "i": [
				"1",
				"1",
				"1",
				"1"
			  ]
			}
		  },
		  "T": {
			"type": "DT_FLOAT"
		  },
		  "data_format": {
			"s": "TkhXQw=="
		  },
		  "strides": {
			"list": {
			  "i": [
				"1",
				"1",
				"1",
				"1"
			  ]
			}
		  },
		  "use_cudnn_on_gpu": {
			"b": true
		  },
		  "explicit_paddings": {
			"list": {}
		  },
		  "padding": {
			"s": "U0FNRQ=="
		  }
		}
	  },
	  {
		"name": "ae_encoder/res2/separable_conv2d_1/separable_conv2d/depthwise",
		"op": "DepthwiseConv2dNative",
		"input": [
		  "ae_encoder/res1/Add",
		  "ae_encoder/res2/separable_conv2d_1/depthwise_kernel"
		],
		"attr": {
		  "padding": {
			"s": "U0FNRQ=="
		  },
		  "dilations": {
			"list": {
			  "i": [
				"1",
				"1",
				"1",
				"1"
			  ]
			}
		  },
		  "T": {
			"type": "DT_FLOAT"
		  },
		  "strides": {
			"list": {
			  "i": [
				"1",
				"1",
				"1",
				"1"
			  ]
			}
		  },
		  "data_format": {
			"s": "TkhXQw=="
		  }
		}
	  },
	  {
		"name": "ae_encoder/res2/BatchNorm_2/FusedBatchNormV3",
		"op": "FusedBatchNormV3",
		"input": [
		  "ae_encoder/res2/conv2d_2/Conv2D",
		  "ae_encoder/res1/BatchNorm/Const",
		  "ae_encoder/res2/BatchNorm_2/beta",
		  "ae_encoder/res1/BatchNorm/Const_1",
		  "ae_encoder/res1/BatchNorm/Const_1"
		],
		"attr": {
		  "epsilon": {
			"f": 0.0010000000474974513
		  },
		  "T": {
			"type": "DT_FLOAT"
		  },
		  "U": {
			"type": "DT_FLOAT"
		  },
		  "data_format": {
			"s": "TkhXQw=="
		  },
		  "is_training": {
			"b": true
		  }
		}
	  },
	  {
		"name": "ae_encoder/res2/separable_conv2d_1/separable_conv2d",
		"op": "Conv2D",
		"input": [
		  "ae_encoder/res2/separable_conv2d_1/separable_conv2d/depthwise",
		  "ae_encoder/res2/separable_conv2d_1/pointwise_kernel"
		],
		"device": "/device:CPU:0",
		"attr": {
		  "dilations": {
			"list": {
			  "i": [
				"1",
				"1",
				"1",
				"1"
			  ]
			}
		  },
		  "T": {
			"type": "DT_FLOAT"
		  },
		  "strides": {
			"list": {
			  "i": [
				"1",
				"1",
				"1",
				"1"
			  ]
			}
		  },
		  "data_format": {
			"s": "TkhXQw=="
		  },
		  "explicit_paddings": {
			"list": {}
		  },
		  "use_cudnn_on_gpu": {
			"b": true
		  },
		  "padding": {
			"s": "VkFMSUQ="
		  }
		}
	  },
	  {
		"name": "ae_encoder/res2/BatchNorm/FusedBatchNormV3",
		"op": "FusedBatchNormV3",
		"input": [
		  "ae_encoder/res2/separable_conv2d_1/separable_conv2d",
		  "ae_encoder/res1/BatchNorm/Const",
		  "ae_encoder/res2/BatchNorm/beta",
		  "ae_encoder/res1/BatchNorm/Const_1",
		  "ae_encoder/res1/BatchNorm/Const_1"
		],
		"attr": {
		  "epsilon": {
			"f": 0.0010000000474974513
		  },
		  "T": {
			"type": "DT_FLOAT"
		  },
		  "U": {
			"type": "DT_FLOAT"
		  },
		  "data_format": {
			"s": "TkhXQw=="
		  },
		  "is_training": {
			"b": true
		  }
		}
	  },
	  {
		"name": "ae_encoder/res2/LeakyRelu",
		"op": "LeakyRelu",
		"input": [
		  "ae_encoder/res2/BatchNorm/FusedBatchNormV3"
		],
		"attr": {
		  "T": {
			"type": "DT_FLOAT"
		  },
		  "alpha": {
			"f": 0.20000000298023224
		  }
		}
	  },
	  {
		"name": "ae_encoder/res2/conv2d_3/Conv2D",
		"op": "Conv2D",
		"input": [
		  "ae_encoder/res2/LeakyRelu",
		  "ae_encoder/res2/conv2d_3/kernel"
		],
		"device": "/device:CPU:0",
		"attr": {
		  "dilations": {
			"list": {
			  "i": [
				"1",
				"1",
				"1",
				"1"
			  ]
			}
		  },
		  "T": {
			"type": "DT_FLOAT"
		  },
		  "strides": {
			"list": {
			  "i": [
				"1",
				"1",
				"1",
				"1"
			  ]
			}
		  },
		  "data_format": {
			"s": "TkhXQw=="
		  },
		  "use_cudnn_on_gpu": {
			"b": true
		  },
		  "explicit_paddings": {
			"list": {}
		  },
		  "padding": {
			"s": "U0FNRQ=="
		  }
		}
	  },
	  {
		"name": "ae_encoder/res2/BatchNorm_1/FusedBatchNormV3",
		"op": "FusedBatchNormV3",
		"input": [
		  "ae_encoder/res2/conv2d_3/Conv2D",
		  "ae_encoder/res1/BatchNorm/Const",
		  "ae_encoder/res2/BatchNorm_1/beta",
		  "ae_encoder/res1/BatchNorm/Const_1",
		  "ae_encoder/res1/BatchNorm/Const_1"
		],
		"attr": {
		  "epsilon": {
			"f": 0.0010000000474974513
		  },
		  "T": {
			"type": "DT_FLOAT"
		  },
		  "U": {
			"type": "DT_FLOAT"
		  },
		  "data_format": {
			"s": "TkhXQw=="
		  },
		  "is_training": {
			"b": true
		  }
		}
	  },
	  {
		"name": "ae_encoder/res2/LeakyRelu_1",
		"op": "LeakyRelu",
		"input": [
		  "ae_encoder/res2/BatchNorm_1/FusedBatchNormV3"
		],
		"attr": {
		  "T": {
			"type": "DT_FLOAT"
		  },
		  "alpha": {
			"f": 0.20000000298023224
		  }
		}
	  },
	  {
		"name": "ae_encoder/res2/Add",
		"op": "Add",
		"input": [
		  "ae_encoder/res2/BatchNorm_2/FusedBatchNormV3",
		  "ae_encoder/res2/LeakyRelu_1"
		],
		"attr": {
		  "T": {
			"type": "DT_FLOAT"
		  }
		}
	  },
	  {
		"name": "ae_encoder/res3/conv2d_4/Conv2D",
		"op": "Conv2D",
		"input": [
		  "ae_encoder/res2/Add",
		  "ae_encoder/res3/conv2d_4/kernel"
		],
		"device": "/device:CPU:0",
		"attr": {
		  "dilations": {
			"list": {
			  "i": [
				"1",
				"1",
				"1",
				"1"
			  ]
			}
		  },
		  "T": {
			"type": "DT_FLOAT"
		  },
		  "strides": {
			"list": {
			  "i": [
				"1",
				"2",
				"2",
				"1"
			  ]
			}
		  },
		  "data_format": {
			"s": "TkhXQw=="
		  },
		  "use_cudnn_on_gpu": {
			"b": true
		  },
		  "explicit_paddings": {
			"list": {}
		  },
		  "padding": {
			"s": "U0FNRQ=="
		  }
		}
	  },
	  {
		"name": "ae_encoder/res3/separable_conv2d_2/separable_conv2d/depthwise",
		"op": "DepthwiseConv2dNative",
		"input": [
		  "ae_encoder/res2/Add",
		  "ae_encoder/res3/separable_conv2d_2/depthwise_kernel"
		],
		"attr": {
		  "padding": {
			"s": "U0FNRQ=="
		  },
		  "dilations": {
			"list": {
			  "i": [
				"1",
				"1",
				"1",
				"1"
			  ]
			}
		  },
		  "T": {
			"type": "DT_FLOAT"
		  },
		  "strides": {
			"list": {
			  "i": [
				"1",
				"2",
				"2",
				"1"
			  ]
			}
		  },
		  "data_format": {
			"s": "TkhXQw=="
		  }
		}
	  },
	  {
		"name": "ae_encoder/res3/BatchNorm_2/FusedBatchNormV3",
		"op": "FusedBatchNormV3",
		"input": [
		  "ae_encoder/res3/conv2d_4/Conv2D",
		  "ae_decoder/res6/BatchNorm/Const",
		  "ae_encoder/res3/BatchNorm_2/beta",
		  "ae_encoder/res1/BatchNorm/Const_1",
		  "ae_encoder/res1/BatchNorm/Const_1"
		],
		"attr": {
		  "epsilon": {
			"f": 0.0010000000474974513
		  },
		  "T": {
			"type": "DT_FLOAT"
		  },
		  "U": {
			"type": "DT_FLOAT"
		  },
		  "data_format": {
			"s": "TkhXQw=="
		  },
		  "is_training": {
			"b": true
		  }
		}
	  },
	  {
		"name": "ae_encoder/res3/separable_conv2d_2/separable_conv2d",
		"op": "Conv2D",
		"input": [
		  "ae_encoder/res3/separable_conv2d_2/separable_conv2d/depthwise",
		  "ae_encoder/res3/separable_conv2d_2/pointwise_kernel"
		],
		"device": "/device:CPU:0",
		"attr": {
		  "dilations": {
			"list": {
			  "i": [
				"1",
				"1",
				"1",
				"1"
			  ]
			}
		  },
		  "T": {
			"type": "DT_FLOAT"
		  },
		  "data_format": {
			"s": "TkhXQw=="
		  },
		  "strides": {
			"list": {
			  "i": [
				"1",
				"1",
				"1",
				"1"
			  ]
			}
		  },
		  "use_cudnn_on_gpu": {
			"b": true
		  },
		  "explicit_paddings": {
			"list": {}
		  },
		  "padding": {
			"s": "VkFMSUQ="
		  }
		}
	  },
	  {
		"name": "ae_encoder/res3/BatchNorm/FusedBatchNormV3",
		"op": "FusedBatchNormV3",
		"input": [
		  "ae_encoder/res3/separable_conv2d_2/separable_conv2d",
		  "ae_decoder/res6/BatchNorm/Const",
		  "ae_encoder/res3/BatchNorm/beta",
		  "ae_encoder/res1/BatchNorm/Const_1",
		  "ae_encoder/res1/BatchNorm/Const_1"
		],
		"attr": {
		  "epsilon": {
			"f": 0.0010000000474974513
		  },
		  "T": {
			"type": "DT_FLOAT"
		  },
		  "U": {
			"type": "DT_FLOAT"
		  },
		  "data_format": {
			"s": "TkhXQw=="
		  },
		  "is_training": {
			"b": true
		  }
		}
	  },
	  {
		"name": "ae_encoder/res3/LeakyRelu",
		"op": "LeakyRelu",
		"input": [
		  "ae_encoder/res3/BatchNorm/FusedBatchNormV3"
		],
		"attr": {
		  "T": {
			"type": "DT_FLOAT"
		  },
		  "alpha": {
			"f": 0.20000000298023224
		  }
		}
	  },
	  {
		"name": "ae_encoder/res3/conv2d_5/Conv2D",
		"op": "Conv2D",
		"input": [
		  "ae_encoder/res3/LeakyRelu",
		  "ae_encoder/res3/conv2d_5/kernel"
		],
		"device": "/device:CPU:0",
		"attr": {
		  "dilations": {
			"list": {
			  "i": [
				"1",
				"1",
				"1",
				"1"
			  ]
			}
		  },
		  "T": {
			"type": "DT_FLOAT"
		  },
		  "strides": {
			"list": {
			  "i": [
				"1",
				"1",
				"1",
				"1"
			  ]
			}
		  },
		  "data_format": {
			"s": "TkhXQw=="
		  },
		  "use_cudnn_on_gpu": {
			"b": true
		  },
		  "explicit_paddings": {
			"list": {}
		  },
		  "padding": {
			"s": "U0FNRQ=="
		  }
		}
	  },
	  {
		"name": "ae_encoder/res3/BatchNorm_1/FusedBatchNormV3",
		"op": "FusedBatchNormV3",
		"input": [
		  "ae_encoder/res3/conv2d_5/Conv2D",
		  "ae_decoder/res6/BatchNorm/Const",
		  "ae_encoder/res3/BatchNorm_1/beta",
		  "ae_encoder/res1/BatchNorm/Const_1",
		  "ae_encoder/res1/BatchNorm/Const_1"
		],
		"attr": {
		  "epsilon": {
			"f": 0.0010000000474974513
		  },
		  "T": {
			"type": "DT_FLOAT"
		  },
		  "U": {
			"type": "DT_FLOAT"
		  },
		  "data_format": {
			"s": "TkhXQw=="
		  },
		  "is_training": {
			"b": true
		  }
		}
	  },
	  {
		"name": "ae_encoder/res3/LeakyRelu_1",
		"op": "LeakyRelu",
		"input": [
		  "ae_encoder/res3/BatchNorm_1/FusedBatchNormV3"
		],
		"attr": {
		  "T": {
			"type": "DT_FLOAT"
		  },
		  "alpha": {
			"f": 0.20000000298023224
		  }
		}
	  },
	  {
		"name": "ae_encoder/res3/Add",
		"op": "Add",
		"input": [
		  "ae_encoder/res3/BatchNorm_2/FusedBatchNormV3",
		  "ae_encoder/res3/LeakyRelu_1"
		],
		"attr": {
		  "T": {
			"type": "DT_FLOAT"
		  }
		}
	  },
	  {
		"name": "ae_encoder/res4/conv2d_6/Conv2D",
		"op": "Conv2D",
		"input": [
		  "ae_encoder/res3/Add",
		  "ae_encoder/res4/conv2d_6/kernel"
		],
		"device": "/device:CPU:0",
		"attr": {
		  "dilations": {
			"list": {
			  "i": [
				"1",
				"1",
				"1",
				"1"
			  ]
			}
		  },
		  "T": {
			"type": "DT_FLOAT"
		  },
		  "data_format": {
			"s": "TkhXQw=="
		  },
		  "strides": {
			"list": {
			  "i": [
				"1",
				"1",
				"1",
				"1"
			  ]
			}
		  },
		  "explicit_paddings": {
			"list": {}
		  },
		  "use_cudnn_on_gpu": {
			"b": true
		  },
		  "padding": {
			"s": "U0FNRQ=="
		  }
		}
	  },
	  {
		"name": "ae_encoder/res4/separable_conv2d_3/separable_conv2d/depthwise",
		"op": "DepthwiseConv2dNative",
		"input": [
		  "ae_encoder/res3/Add",
		  "ae_encoder/res4/separable_conv2d_3/depthwise_kernel"
		],
		"attr": {
		  "padding": {
			"s": "U0FNRQ=="
		  },
		  "dilations": {
			"list": {
			  "i": [
				"1",
				"1",
				"1",
				"1"
			  ]
			}
		  },
		  "T": {
			"type": "DT_FLOAT"
		  },
		  "strides": {
			"list": {
			  "i": [
				"1",
				"1",
				"1",
				"1"
			  ]
			}
		  },
		  "data_format": {
			"s": "TkhXQw=="
		  }
		}
	  },
	  {
		"name": "ae_encoder/res4/BatchNorm_2/FusedBatchNormV3",
		"op": "FusedBatchNormV3",
		"input": [
		  "ae_encoder/res4/conv2d_6/Conv2D",
		  "ae_decoder/res6/BatchNorm/Const",
		  "ae_encoder/res4/BatchNorm_2/beta",
		  "ae_encoder/res1/BatchNorm/Const_1",
		  "ae_encoder/res1/BatchNorm/Const_1"
		],
		"attr": {
		  "epsilon": {
			"f": 0.0010000000474974513
		  },
		  "T": {
			"type": "DT_FLOAT"
		  },
		  "U": {
			"type": "DT_FLOAT"
		  },
		  "data_format": {
			"s": "TkhXQw=="
		  },
		  "is_training": {
			"b": true
		  }
		}
	  },
	  {
		"name": "ae_encoder/res4/separable_conv2d_3/separable_conv2d",
		"op": "Conv2D",
		"input": [
		  "ae_encoder/res4/separable_conv2d_3/separable_conv2d/depthwise",
		  "ae_encoder/res4/separable_conv2d_3/pointwise_kernel"
		],
		"device": "/device:CPU:0",
		"attr": {
		  "dilations": {
			"list": {
			  "i": [
				"1",
				"1",
				"1",
				"1"
			  ]
			}
		  },
		  "T": {
			"type": "DT_FLOAT"
		  },
		  "data_format": {
			"s": "TkhXQw=="
		  },
		  "strides": {
			"list": {
			  "i": [
				"1",
				"1",
				"1",
				"1"
			  ]
			}
		  },
		  "use_cudnn_on_gpu": {
			"b": true
		  },
		  "explicit_paddings": {
			"list": {}
		  },
		  "padding": {
			"s": "VkFMSUQ="
		  }
		}
	  },
	  {
		"name": "ae_encoder/res4/BatchNorm/FusedBatchNormV3",
		"op": "FusedBatchNormV3",
		"input": [
		  "ae_encoder/res4/separable_conv2d_3/separable_conv2d",
		  "ae_decoder/res6/BatchNorm/Const",
		  "ae_encoder/res4/BatchNorm/beta",
		  "ae_encoder/res1/BatchNorm/Const_1",
		  "ae_encoder/res1/BatchNorm/Const_1"
		],
		"attr": {
		  "epsilon": {
			"f": 0.0010000000474974513
		  },
		  "T": {
			"type": "DT_FLOAT"
		  },
		  "U": {
			"type": "DT_FLOAT"
		  },
		  "data_format": {
			"s": "TkhXQw=="
		  },
		  "is_training": {
			"b": true
		  }
		}
	  },
	  {
		"name": "ae_encoder/res4/LeakyRelu",
		"op": "LeakyRelu",
		"input": [
		  "ae_encoder/res4/BatchNorm/FusedBatchNormV3"
		],
		"attr": {
		  "T": {
			"type": "DT_FLOAT"
		  },
		  "alpha": {
			"f": 0.20000000298023224
		  }
		}
	  },
	  {
		"name": "ae_encoder/res4/conv2d_7/Conv2D",
		"op": "Conv2D",
		"input": [
		  "ae_encoder/res4/LeakyRelu",
		  "ae_encoder/res4/conv2d_7/kernel"
		],
		"device": "/device:CPU:0",
		"attr": {
		  "dilations": {
			"list": {
			  "i": [
				"1",
				"1",
				"1",
				"1"
			  ]
			}
		  },
		  "T": {
			"type": "DT_FLOAT"
		  },
		  "data_format": {
			"s": "TkhXQw=="
		  },
		  "strides": {
			"list": {
			  "i": [
				"1",
				"1",
				"1",
				"1"
			  ]
			}
		  },
		  "use_cudnn_on_gpu": {
			"b": true
		  },
		  "explicit_paddings": {
			"list": {}
		  },
		  "padding": {
			"s": "U0FNRQ=="
		  }
		}
	  },
	  {
		"name": "ae_encoder/res4/BatchNorm_1/FusedBatchNormV3",
		"op": "FusedBatchNormV3",
		"input": [
		  "ae_encoder/res4/conv2d_7/Conv2D",
		  "ae_decoder/res6/BatchNorm/Const",
		  "ae_encoder/res4/BatchNorm_1/beta",
		  "ae_encoder/res1/BatchNorm/Const_1",
		  "ae_encoder/res1/BatchNorm/Const_1"
		],
		"attr": {
		  "epsilon": {
			"f": 0.0010000000474974513
		  },
		  "T": {
			"type": "DT_FLOAT"
		  },
		  "U": {
			"type": "DT_FLOAT"
		  },
		  "data_format": {
			"s": "TkhXQw=="
		  },
		  "is_training": {
			"b": true
		  }
		}
	  },
	  {
		"name": "ae_encoder/res4/LeakyRelu_1",
		"op": "LeakyRelu",
		"input": [
		  "ae_encoder/res4/BatchNorm_1/FusedBatchNormV3"
		],
		"attr": {
		  "T": {
			"type": "DT_FLOAT"
		  },
		  "alpha": {
			"f": 0.20000000298023224
		  }
		}
	  },
	  {
		"name": "ae_encoder/res4/Add",
		"op": "Add",
		"input": [
		  "ae_encoder/res4/BatchNorm_2/FusedBatchNormV3",
		  "ae_encoder/res4/LeakyRelu_1"
		],
		"attr": {
		  "T": {
			"type": "DT_FLOAT"
		  }
		}
	  },
	  {
		"name": "ae_encoder/res6/conv2d_8/Conv2D",
		"op": "Conv2D",
		"input": [
		  "ae_encoder/res4/Add",
		  "ae_encoder/res6/conv2d_8/kernel"
		],
		"device": "/device:CPU:0",
		"attr": {
		  "dilations": {
			"list": {
			  "i": [
				"1",
				"1",
				"1",
				"1"
			  ]
			}
		  },
		  "T": {
			"type": "DT_FLOAT"
		  },
		  "data_format": {
			"s": "TkhXQw=="
		  },
		  "strides": {
			"list": {
			  "i": [
				"1",
				"2",
				"2",
				"1"
			  ]
			}
		  },
		  "use_cudnn_on_gpu": {
			"b": true
		  },
		  "explicit_paddings": {
			"list": {}
		  },
		  "padding": {
			"s": "U0FNRQ=="
		  }
		}
	  },
	  {
		"name": "ae_encoder/res6/separable_conv2d_4/separable_conv2d/depthwise",
		"op": "DepthwiseConv2dNative",
		"input": [
		  "ae_encoder/res4/Add",
		  "ae_encoder/res6/separable_conv2d_4/depthwise_kernel"
		],
		"attr": {
		  "padding": {
			"s": "U0FNRQ=="
		  },
		  "dilations": {
			"list": {
			  "i": [
				"1",
				"1",
				"1",
				"1"
			  ]
			}
		  },
		  "T": {
			"type": "DT_FLOAT"
		  },
		  "strides": {
			"list": {
			  "i": [
				"1",
				"2",
				"2",
				"1"
			  ]
			}
		  },
		  "data_format": {
			"s": "TkhXQw=="
		  }
		}
	  },
	  {
		"name": "ae_encoder/res6/BatchNorm_2/FusedBatchNormV3",
		"op": "FusedBatchNormV3",
		"input": [
		  "ae_encoder/res6/conv2d_8/Conv2D",
		  "ae_encoder/res6/BatchNorm/Const",
		  "ae_encoder/res6/BatchNorm_2/beta",
		  "ae_encoder/res1/BatchNorm/Const_1",
		  "ae_encoder/res1/BatchNorm/Const_1"
		],
		"attr": {
		  "epsilon": {
			"f": 0.0010000000474974513
		  },
		  "T": {
			"type": "DT_FLOAT"
		  },
		  "U": {
			"type": "DT_FLOAT"
		  },
		  "data_format": {
			"s": "TkhXQw=="
		  },
		  "is_training": {
			"b": true
		  }
		}
	  },
	  {
		"name": "ae_encoder/res6/separable_conv2d_4/separable_conv2d",
		"op": "Conv2D",
		"input": [
		  "ae_encoder/res6/separable_conv2d_4/separable_conv2d/depthwise",
		  "ae_encoder/res6/separable_conv2d_4/pointwise_kernel"
		],
		"device": "/device:CPU:0",
		"attr": {
		  "dilations": {
			"list": {
			  "i": [
				"1",
				"1",
				"1",
				"1"
			  ]
			}
		  },
		  "T": {
			"type": "DT_FLOAT"
		  },
		  "data_format": {
			"s": "TkhXQw=="
		  },
		  "strides": {
			"list": {
			  "i": [
				"1",
				"1",
				"1",
				"1"
			  ]
			}
		  },
		  "use_cudnn_on_gpu": {
			"b": true
		  },
		  "explicit_paddings": {
			"list": {}
		  },
		  "padding": {
			"s": "VkFMSUQ="
		  }
		}
	  },
	  {
		"name": "ae_encoder/res6/BatchNorm/FusedBatchNormV3",
		"op": "FusedBatchNormV3",
		"input": [
		  "ae_encoder/res6/separable_conv2d_4/separable_conv2d",
		  "ae_encoder/res6/BatchNorm/Const",
		  "ae_encoder/res6/BatchNorm/beta",
		  "ae_encoder/res1/BatchNorm/Const_1",
		  "ae_encoder/res1/BatchNorm/Const_1"
		],
		"attr": {
		  "epsilon": {
			"f": 0.0010000000474974513
		  },
		  "T": {
			"type": "DT_FLOAT"
		  },
		  "U": {
			"type": "DT_FLOAT"
		  },
		  "data_format": {
			"s": "TkhXQw=="
		  },
		  "is_training": {
			"b": true
		  }
		}
	  },
	  {
		"name": "ae_encoder/res6/LeakyRelu",
		"op": "LeakyRelu",
		"input": [
		  "ae_encoder/res6/BatchNorm/FusedBatchNormV3"
		],
		"attr": {
		  "T": {
			"type": "DT_FLOAT"
		  },
		  "alpha": {
			"f": 0.20000000298023224
		  }
		}
	  },
	  {
		"name": "ae_encoder/res6/conv2d_9/Conv2D",
		"op": "Conv2D",
		"input": [
		  "ae_encoder/res6/LeakyRelu",
		  "ae_encoder/res6/conv2d_9/kernel"
		],
		"device": "/device:CPU:0",
		"attr": {
		  "dilations": {
			"list": {
			  "i": [
				"1",
				"1",
				"1",
				"1"
			  ]
			}
		  },
		  "T": {
			"type": "DT_FLOAT"
		  },
		  "data_format": {
			"s": "TkhXQw=="
		  },
		  "strides": {
			"list": {
			  "i": [
				"1",
				"1",
				"1",
				"1"
			  ]
			}
		  },
		  "use_cudnn_on_gpu": {
			"b": true
		  },
		  "explicit_paddings": {
			"list": {}
		  },
		  "padding": {
			"s": "U0FNRQ=="
		  }
		}
	  },
	  {
		"name": "ae_encoder/res6/BatchNorm_1/FusedBatchNormV3",
		"op": "FusedBatchNormV3",
		"input": [
		  "ae_encoder/res6/conv2d_9/Conv2D",
		  "ae_encoder/res6/BatchNorm/Const",
		  "ae_encoder/res6/BatchNorm_1/beta",
		  "ae_encoder/res1/BatchNorm/Const_1",
		  "ae_encoder/res1/BatchNorm/Const_1"
		],
		"attr": {
		  "epsilon": {
			"f": 0.0010000000474974513
		  },
		  "T": {
			"type": "DT_FLOAT"
		  },
		  "U": {
			"type": "DT_FLOAT"
		  },
		  "data_format": {
			"s": "TkhXQw=="
		  },
		  "is_training": {
			"b": true
		  }
		}
	  },
	  {
		"name": "ae_encoder/res6/LeakyRelu_1",
		"op": "LeakyRelu",
		"input": [
		  "ae_encoder/res6/BatchNorm_1/FusedBatchNormV3"
		],
		"attr": {
		  "T": {
			"type": "DT_FLOAT"
		  },
		  "alpha": {
			"f": 0.20000000298023224
		  }
		}
	  },
	  {
		"name": "ae_encoder/res6/Add",
		"op": "Add",
		"input": [
		  "ae_encoder/res6/BatchNorm_2/FusedBatchNormV3",
		  "ae_encoder/res6/LeakyRelu_1"
		],
		"attr": {
		  "T": {
			"type": "DT_FLOAT"
		  }
		}
	  },
	  {
		"name": "ae_encoder/res7/conv2d_10/Conv2D",
		"op": "Conv2D",
		"input": [
		  "ae_encoder/res6/Add",
		  "ae_encoder/res7/conv2d_10/kernel"
		],
		"device": "/device:CPU:0",
		"attr": {
		  "dilations": {
			"list": {
			  "i": [
				"1",
				"1",
				"1",
				"1"
			  ]
			}
		  },
		  "T": {
			"type": "DT_FLOAT"
		  },
		  "strides": {
			"list": {
			  "i": [
				"1",
				"1",
				"1",
				"1"
			  ]
			}
		  },
		  "data_format": {
			"s": "TkhXQw=="
		  },
		  "use_cudnn_on_gpu": {
			"b": true
		  },
		  "explicit_paddings": {
			"list": {}
		  },
		  "padding": {
			"s": "U0FNRQ=="
		  }
		}
	  },
	  {
		"name": "ae_encoder/res7/separable_conv2d_5/separable_conv2d/depthwise",
		"op": "DepthwiseConv2dNative",
		"input": [
		  "ae_encoder/res6/Add",
		  "ae_encoder/res7/separable_conv2d_5/depthwise_kernel"
		],
		"attr": {
		  "padding": {
			"s": "U0FNRQ=="
		  },
		  "dilations": {
			"list": {
			  "i": [
				"1",
				"1",
				"1",
				"1"
			  ]
			}
		  },
		  "T": {
			"type": "DT_FLOAT"
		  },
		  "strides": {
			"list": {
			  "i": [
				"1",
				"1",
				"1",
				"1"
			  ]
			}
		  },
		  "data_format": {
			"s": "TkhXQw=="
		  }
		}
	  },
	  {
		"name": "ae_encoder/res7/BatchNorm_2/FusedBatchNormV3",
		"op": "FusedBatchNormV3",
		"input": [
		  "ae_encoder/res7/conv2d_10/Conv2D",
		  "ae_encoder/res6/BatchNorm/Const",
		  "ae_encoder/res7/BatchNorm_2/beta",
		  "ae_encoder/res1/BatchNorm/Const_1",
		  "ae_encoder/res1/BatchNorm/Const_1"
		],
		"attr": {
		  "epsilon": {
			"f": 0.0010000000474974513
		  },
		  "T": {
			"type": "DT_FLOAT"
		  },
		  "U": {
			"type": "DT_FLOAT"
		  },
		  "data_format": {
			"s": "TkhXQw=="
		  },
		  "is_training": {
			"b": true
		  }
		}
	  },
	  {
		"name": "ae_encoder/res7/separable_conv2d_5/separable_conv2d",
		"op": "Conv2D",
		"input": [
		  "ae_encoder/res7/separable_conv2d_5/separable_conv2d/depthwise",
		  "ae_encoder/res7/separable_conv2d_5/pointwise_kernel"
		],
		"device": "/device:CPU:0",
		"attr": {
		  "dilations": {
			"list": {
			  "i": [
				"1",
				"1",
				"1",
				"1"
			  ]
			}
		  },
		  "T": {
			"type": "DT_FLOAT"
		  },
		  "strides": {
			"list": {
			  "i": [
				"1",
				"1",
				"1",
				"1"
			  ]
			}
		  },
		  "data_format": {
			"s": "TkhXQw=="
		  },
		  "use_cudnn_on_gpu": {
			"b": true
		  },
		  "explicit_paddings": {
			"list": {}
		  },
		  "padding": {
			"s": "VkFMSUQ="
		  }
		}
	  },
	  {
		"name": "ae_encoder/res7/BatchNorm/FusedBatchNormV3",
		"op": "FusedBatchNormV3",
		"input": [
		  "ae_encoder/res7/separable_conv2d_5/separable_conv2d",
		  "ae_encoder/res6/BatchNorm/Const",
		  "ae_encoder/res7/BatchNorm/beta",
		  "ae_encoder/res1/BatchNorm/Const_1",
		  "ae_encoder/res1/BatchNorm/Const_1"
		],
		"attr": {
		  "epsilon": {
			"f": 0.0010000000474974513
		  },
		  "T": {
			"type": "DT_FLOAT"
		  },
		  "U": {
			"type": "DT_FLOAT"
		  },
		  "data_format": {
			"s": "TkhXQw=="
		  },
		  "is_training": {
			"b": true
		  }
		}
	  },
	  {
		"name": "ae_encoder/res7/LeakyRelu",
		"op": "LeakyRelu",
		"input": [
		  "ae_encoder/res7/BatchNorm/FusedBatchNormV3"
		],
		"attr": {
		  "T": {
			"type": "DT_FLOAT"
		  },
		  "alpha": {
			"f": 0.20000000298023224
		  }
		}
	  },
	  {
		"name": "ae_encoder/res7/conv2d_11/Conv2D",
		"op": "Conv2D",
		"input": [
		  "ae_encoder/res7/LeakyRelu",
		  "ae_encoder/res7/conv2d_11/kernel"
		],
		"device": "/device:CPU:0",
		"attr": {
		  "dilations": {
			"list": {
			  "i": [
				"1",
				"1",
				"1",
				"1"
			  ]
			}
		  },
		  "T": {
			"type": "DT_FLOAT"
		  },
		  "data_format": {
			"s": "TkhXQw=="
		  },
		  "strides": {
			"list": {
			  "i": [
				"1",
				"1",
				"1",
				"1"
			  ]
			}
		  },
		  "explicit_paddings": {
			"list": {}
		  },
		  "use_cudnn_on_gpu": {
			"b": true
		  },
		  "padding": {
			"s": "U0FNRQ=="
		  }
		}
	  },
	  {
		"name": "ae_encoder/res7/BatchNorm_1/FusedBatchNormV3",
		"op": "FusedBatchNormV3",
		"input": [
		  "ae_encoder/res7/conv2d_11/Conv2D",
		  "ae_encoder/res6/BatchNorm/Const",
		  "ae_encoder/res7/BatchNorm_1/beta",
		  "ae_encoder/res1/BatchNorm/Const_1",
		  "ae_encoder/res1/BatchNorm/Const_1"
		],
		"attr": {
		  "epsilon": {
			"f": 0.0010000000474974513
		  },
		  "T": {
			"type": "DT_FLOAT"
		  },
		  "U": {
			"type": "DT_FLOAT"
		  },
		  "data_format": {
			"s": "TkhXQw=="
		  },
		  "is_training": {
			"b": true
		  }
		}
	  },
	  {
		"name": "ae_encoder/res7/LeakyRelu_1",
		"op": "LeakyRelu",
		"input": [
		  "ae_encoder/res7/BatchNorm_1/FusedBatchNormV3"
		],
		"attr": {
		  "T": {
			"type": "DT_FLOAT"
		  },
		  "alpha": {
			"f": 0.20000000298023224
		  }
		}
	  },
	  {
		"name": "ae_encoder/res7/Add",
		"op": "Add",
		"input": [
		  "ae_encoder/res7/BatchNorm_2/FusedBatchNormV3",
		  "ae_encoder/res7/LeakyRelu_1"
		],
		"attr": {
		  "T": {
			"type": "DT_FLOAT"
		  }
		}
	  },
	  {
		"name": "ae_encoder/res8/conv2d_12/Conv2D",
		"op": "Conv2D",
		"input": [
		  "ae_encoder/res7/Add",
		  "ae_encoder/res8/conv2d_12/kernel"
		],
		"device": "/device:CPU:0",
		"attr": {
		  "dilations": {
			"list": {
			  "i": [
				"1",
				"1",
				"1",
				"1"
			  ]
			}
		  },
		  "T": {
			"type": "DT_FLOAT"
		  },
		  "data_format": {
			"s": "TkhXQw=="
		  },
		  "strides": {
			"list": {
			  "i": [
				"1",
				"2",
				"2",
				"1"
			  ]
			}
		  },
		  "use_cudnn_on_gpu": {
			"b": true
		  },
		  "explicit_paddings": {
			"list": {}
		  },
		  "padding": {
			"s": "U0FNRQ=="
		  }
		}
	  },
	  {
		"name": "ae_encoder/res8/separable_conv2d_6/separable_conv2d/depthwise",
		"op": "DepthwiseConv2dNative",
		"input": [
		  "ae_encoder/res7/Add",
		  "ae_encoder/res8/separable_conv2d_6/depthwise_kernel"
		],
		"attr": {
		  "padding": {
			"s": "U0FNRQ=="
		  },
		  "dilations": {
			"list": {
			  "i": [
				"1",
				"1",
				"1",
				"1"
			  ]
			}
		  },
		  "T": {
			"type": "DT_FLOAT"
		  },
		  "strides": {
			"list": {
			  "i": [
				"1",
				"2",
				"2",
				"1"
			  ]
			}
		  },
		  "data_format": {
			"s": "TkhXQw=="
		  }
		}
	  },
	  {
		"name": "ae_encoder/res8/BatchNorm_2/FusedBatchNormV3",
		"op": "FusedBatchNormV3",
		"input": [
		  "ae_encoder/res8/conv2d_12/Conv2D",
		  "ae_encoder/res8/BatchNorm/Const",
		  "ae_encoder/res8/BatchNorm_2/beta",
		  "ae_encoder/res1/BatchNorm/Const_1",
		  "ae_encoder/res1/BatchNorm/Const_1"
		],
		"attr": {
		  "epsilon": {
			"f": 0.0010000000474974513
		  },
		  "T": {
			"type": "DT_FLOAT"
		  },
		  "U": {
			"type": "DT_FLOAT"
		  },
		  "data_format": {
			"s": "TkhXQw=="
		  },
		  "is_training": {
			"b": true
		  }
		}
	  },
	  {
		"name": "ae_encoder/res8/separable_conv2d_6/separable_conv2d",
		"op": "Conv2D",
		"input": [
		  "ae_encoder/res8/separable_conv2d_6/separable_conv2d/depthwise",
		  "ae_encoder/res8/separable_conv2d_6/pointwise_kernel"
		],
		"device": "/device:CPU:0",
		"attr": {
		  "dilations": {
			"list": {
			  "i": [
				"1",
				"1",
				"1",
				"1"
			  ]
			}
		  },
		  "T": {
			"type": "DT_FLOAT"
		  },
		  "data_format": {
			"s": "TkhXQw=="
		  },
		  "strides": {
			"list": {
			  "i": [
				"1",
				"1",
				"1",
				"1"
			  ]
			}
		  },
		  "use_cudnn_on_gpu": {
			"b": true
		  },
		  "explicit_paddings": {
			"list": {}
		  },
		  "padding": {
			"s": "VkFMSUQ="
		  }
		}
	  },
	  {
		"name": "ae_encoder/res8/BatchNorm/FusedBatchNormV3",
		"op": "FusedBatchNormV3",
		"input": [
		  "ae_encoder/res8/separable_conv2d_6/separable_conv2d",
		  "ae_encoder/res8/BatchNorm/Const",
		  "ae_encoder/res8/BatchNorm/beta",
		  "ae_encoder/res1/BatchNorm/Const_1",
		  "ae_encoder/res1/BatchNorm/Const_1"
		],
		"attr": {
		  "epsilon": {
			"f": 0.0010000000474974513
		  },
		  "T": {
			"type": "DT_FLOAT"
		  },
		  "U": {
			"type": "DT_FLOAT"
		  },
		  "data_format": {
			"s": "TkhXQw=="
		  },
		  "is_training": {
			"b": true
		  }
		}
	  },
	  {
		"name": "ae_encoder/res8/LeakyRelu",
		"op": "LeakyRelu",
		"input": [
		  "ae_encoder/res8/BatchNorm/FusedBatchNormV3"
		],
		"attr": {
		  "T": {
			"type": "DT_FLOAT"
		  },
		  "alpha": {
			"f": 0.20000000298023224
		  }
		}
	  },
	  {
		"name": "ae_encoder/res8/conv2d_13/Conv2D",
		"op": "Conv2D",
		"input": [
		  "ae_encoder/res8/LeakyRelu",
		  "ae_encoder/res8/conv2d_13/kernel"
		],
		"device": "/device:CPU:0",
		"attr": {
		  "dilations": {
			"list": {
			  "i": [
				"1",
				"1",
				"1",
				"1"
			  ]
			}
		  },
		  "T": {
			"type": "DT_FLOAT"
		  },
		  "strides": {
			"list": {
			  "i": [
				"1",
				"1",
				"1",
				"1"
			  ]
			}
		  },
		  "data_format": {
			"s": "TkhXQw=="
		  },
		  "use_cudnn_on_gpu": {
			"b": true
		  },
		  "explicit_paddings": {
			"list": {}
		  },
		  "padding": {
			"s": "U0FNRQ=="
		  }
		}
	  },
	  {
		"name": "ae_encoder/res8/BatchNorm_1/FusedBatchNormV3",
		"op": "FusedBatchNormV3",
		"input": [
		  "ae_encoder/res8/conv2d_13/Conv2D",
		  "ae_encoder/res8/BatchNorm/Const",
		  "ae_encoder/res8/BatchNorm_1/beta",
		  "ae_encoder/res1/BatchNorm/Const_1",
		  "ae_encoder/res1/BatchNorm/Const_1"
		],
		"attr": {
		  "epsilon": {
			"f": 0.0010000000474974513
		  },
		  "T": {
			"type": "DT_FLOAT"
		  },
		  "U": {
			"type": "DT_FLOAT"
		  },
		  "data_format": {
			"s": "TkhXQw=="
		  },
		  "is_training": {
			"b": true
		  }
		}
	  },
	  {
		"name": "ae_encoder/res8/LeakyRelu_1",
		"op": "LeakyRelu",
		"input": [
		  "ae_encoder/res8/BatchNorm_1/FusedBatchNormV3"
		],
		"attr": {
		  "T": {
			"type": "DT_FLOAT"
		  },
		  "alpha": {
			"f": 0.20000000298023224
		  }
		}
	  },
	  {
		"name": "ae_encoder/res8/Add",
		"op": "Add",
		"input": [
		  "ae_encoder/res8/BatchNorm_2/FusedBatchNormV3",
		  "ae_encoder/res8/LeakyRelu_1"
		],
		"attr": {
		  "T": {
			"type": "DT_FLOAT"
		  }
		}
	  },
	  {
		"name": "ae_encoder/res9/conv2d_14/Conv2D",
		"op": "Conv2D",
		"input": [
		  "ae_encoder/res8/Add",
		  "ae_encoder/res9/conv2d_14/kernel"
		],
		"device": "/device:CPU:0",
		"attr": {
		  "dilations": {
			"list": {
			  "i": [
				"1",
				"1",
				"1",
				"1"
			  ]
			}
		  },
		  "T": {
			"type": "DT_FLOAT"
		  },
		  "data_format": {
			"s": "TkhXQw=="
		  },
		  "strides": {
			"list": {
			  "i": [
				"1",
				"1",
				"1",
				"1"
			  ]
			}
		  },
		  "explicit_paddings": {
			"list": {}
		  },
		  "use_cudnn_on_gpu": {
			"b": true
		  },
		  "padding": {
			"s": "U0FNRQ=="
		  }
		}
	  },
	  {
		"name": "ae_encoder/res9/separable_conv2d_7/separable_conv2d/depthwise",
		"op": "DepthwiseConv2dNative",
		"input": [
		  "ae_encoder/res8/Add",
		  "ae_encoder/res9/separable_conv2d_7/depthwise_kernel"
		],
		"attr": {
		  "padding": {
			"s": "U0FNRQ=="
		  },
		  "dilations": {
			"list": {
			  "i": [
				"1",
				"1",
				"1",
				"1"
			  ]
			}
		  },
		  "T": {
			"type": "DT_FLOAT"
		  },
		  "strides": {
			"list": {
			  "i": [
				"1",
				"1",
				"1",
				"1"
			  ]
			}
		  },
		  "data_format": {
			"s": "TkhXQw=="
		  }
		}
	  },
	  {
		"name": "ae_encoder/res9/BatchNorm_2/FusedBatchNormV3",
		"op": "FusedBatchNormV3",
		"input": [
		  "ae_encoder/res9/conv2d_14/Conv2D",
		  "ae_encoder/res8/BatchNorm/Const",
		  "ae_encoder/res9/BatchNorm_2/beta",
		  "ae_encoder/res1/BatchNorm/Const_1",
		  "ae_encoder/res1/BatchNorm/Const_1"
		],
		"attr": {
		  "epsilon": {
			"f": 0.0010000000474974513
		  },
		  "T": {
			"type": "DT_FLOAT"
		  },
		  "U": {
			"type": "DT_FLOAT"
		  },
		  "data_format": {
			"s": "TkhXQw=="
		  },
		  "is_training": {
			"b": true
		  }
		}
	  },
	  {
		"name": "ae_encoder/res9/separable_conv2d_7/separable_conv2d",
		"op": "Conv2D",
		"input": [
		  "ae_encoder/res9/separable_conv2d_7/separable_conv2d/depthwise",
		  "ae_encoder/res9/separable_conv2d_7/pointwise_kernel"
		],
		"device": "/device:CPU:0",
		"attr": {
		  "dilations": {
			"list": {
			  "i": [
				"1",
				"1",
				"1",
				"1"
			  ]
			}
		  },
		  "T": {
			"type": "DT_FLOAT"
		  },
		  "data_format": {
			"s": "TkhXQw=="
		  },
		  "strides": {
			"list": {
			  "i": [
				"1",
				"1",
				"1",
				"1"
			  ]
			}
		  },
		  "use_cudnn_on_gpu": {
			"b": true
		  },
		  "explicit_paddings": {
			"list": {}
		  },
		  "padding": {
			"s": "VkFMSUQ="
		  }
		}
	  },
	  {
		"name": "ae_encoder/res9/BatchNorm/FusedBatchNormV3",
		"op": "FusedBatchNormV3",
		"input": [
		  "ae_encoder/res9/separable_conv2d_7/separable_conv2d",
		  "ae_encoder/res8/BatchNorm/Const",
		  "ae_encoder/res9/BatchNorm/beta",
		  "ae_encoder/res1/BatchNorm/Const_1",
		  "ae_encoder/res1/BatchNorm/Const_1"
		],
		"attr": {
		  "epsilon": {
			"f": 0.0010000000474974513
		  },
		  "T": {
			"type": "DT_FLOAT"
		  },
		  "U": {
			"type": "DT_FLOAT"
		  },
		  "data_format": {
			"s": "TkhXQw=="
		  },
		  "is_training": {
			"b": true
		  }
		}
	  },
	  {
		"name": "ae_encoder/res9/LeakyRelu",
		"op": "LeakyRelu",
		"input": [
		  "ae_encoder/res9/BatchNorm/FusedBatchNormV3"
		],
		"attr": {
		  "T": {
			"type": "DT_FLOAT"
		  },
		  "alpha": {
			"f": 0.20000000298023224
		  }
		}
	  },
	  {
		"name": "ae_encoder/res9/conv2d_15/Conv2D",
		"op": "Conv2D",
		"input": [
		  "ae_encoder/res9/LeakyRelu",
		  "ae_encoder/res9/conv2d_15/kernel"
		],
		"device": "/device:CPU:0",
		"attr": {
		  "dilations": {
			"list": {
			  "i": [
				"1",
				"1",
				"1",
				"1"
			  ]
			}
		  },
		  "T": {
			"type": "DT_FLOAT"
		  },
		  "data_format": {
			"s": "TkhXQw=="
		  },
		  "strides": {
			"list": {
			  "i": [
				"1",
				"1",
				"1",
				"1"
			  ]
			}
		  },
		  "explicit_paddings": {
			"list": {}
		  },
		  "use_cudnn_on_gpu": {
			"b": true
		  },
		  "padding": {
			"s": "U0FNRQ=="
		  }
		}
	  },
	  {
		"name": "ae_encoder/res9/BatchNorm_1/FusedBatchNormV3",
		"op": "FusedBatchNormV3",
		"input": [
		  "ae_encoder/res9/conv2d_15/Conv2D",
		  "ae_encoder/res8/BatchNorm/Const",
		  "ae_encoder/res9/BatchNorm_1/beta",
		  "ae_encoder/res1/BatchNorm/Const_1",
		  "ae_encoder/res1/BatchNorm/Const_1"
		],
		"attr": {
		  "epsilon": {
			"f": 0.0010000000474974513
		  },
		  "T": {
			"type": "DT_FLOAT"
		  },
		  "U": {
			"type": "DT_FLOAT"
		  },
		  "data_format": {
			"s": "TkhXQw=="
		  },
		  "is_training": {
			"b": true
		  }
		}
	  },
	  {
		"name": "ae_encoder/res9/LeakyRelu_1",
		"op": "LeakyRelu",
		"input": [
		  "ae_encoder/res9/BatchNorm_1/FusedBatchNormV3"
		],
		"attr": {
		  "T": {
			"type": "DT_FLOAT"
		  },
		  "alpha": {
			"f": 0.20000000298023224
		  }
		}
	  },
	  {
		"name": "ae_encoder/res9/Add",
		"op": "Add",
		"input": [
		  "ae_encoder/res9/BatchNorm_2/FusedBatchNormV3",
		  "ae_encoder/res9/LeakyRelu_1"
		],
		"attr": {
		  "T": {
			"type": "DT_FLOAT"
		  }
		}
	  },
	  {
		"name": "ae_encoder/Reshape",
		"op": "Reshape",
		"input": [
		  "ae_encoder/res9/Add",
		  "ae_encoder/Reshape/shape"
		],
		"attr": {
		  "T": {
			"type": "DT_FLOAT"
		  },
		  "Tshape": {
			"type": "DT_INT32"
		  }
		}
	  },
	  {
		"name": "ae_encoder/fc_bottleneck/fc/BiasAdd",
		"op": "_FusedMatMul",
		"input": [
		  "ae_encoder/Reshape",
		  "ae_encoder/fc_bottleneck/fc/kernel",
		  "ae_encoder/fc_bottleneck/fc/bias"
		],
		"device": "/device:CPU:0",
		"attr": {
		  "transpose_b": {
			"b": false
		  },
		  "T": {
			"type": "DT_FLOAT"
		  },
		  "num_args": {
			"i": "1"
		  },
		  "epsilon": {
			"f": 0.0
		  },
		  "fused_ops": {
			"list": {
			  "s": [
				"Qmlhc0FkZA=="
			  ]
			}
		  },
		  "transpose_a": {
			"b": false
		  }
		}
	  },
	  {
		"name": "ae_encoder/fc_bottleneck/BatchNorm/Shape",
		"op": "Shape",
		"input": [
		  "ae_encoder/fc_bottleneck/fc/BiasAdd"
		],
		"attr": {
		  "T": {
			"type": "DT_FLOAT"
		  },
		  "out_type": {
			"type": "DT_INT32"
		  }
		}
	  },
	  {
		"name": "ae_encoder/fc_bottleneck/BatchNorm/Reshape",
		"op": "Reshape",
		"input": [
		  "ae_encoder/fc_bottleneck/fc/BiasAdd",
		  "ae_encoder/fc_bottleneck/BatchNorm/Reshape/shape"
		],
		"attr": {
		  "T": {
			"type": "DT_FLOAT"
		  },
		  "Tshape": {
			"type": "DT_INT32"
		  }
		}
	  },
	  {
		"name": "ae_encoder/fc_bottleneck/BatchNorm/FusedBatchNormV3",
		"op": "FusedBatchNormV3",
		"input": [
		  "ae_encoder/fc_bottleneck/BatchNorm/Reshape",
		  "ae_encoder/res8/BatchNorm/Const",
		  "ae_encoder/fc_bottleneck/BatchNorm/beta",
		  "ae_encoder/res1/BatchNorm/Const_1",
		  "ae_encoder/res1/BatchNorm/Const_1"
		],
		"attr": {
		  "epsilon": {
			"f": 0.0010000000474974513
		  },
		  "T": {
			"type": "DT_FLOAT"
		  },
		  "U": {
			"type": "DT_FLOAT"
		  },
		  "data_format": {
			"s": "TkhXQw=="
		  },
		  "is_training": {
			"b": true
		  }
		}
	  },
	  {
		"name": "ae_encoder/fc_bottleneck/BatchNorm/Reshape_1",
		"op": "Reshape",
		"input": [
		  "ae_encoder/fc_bottleneck/BatchNorm/FusedBatchNormV3",
		  "ae_encoder/fc_bottleneck/BatchNorm/Shape"
		],
		"attr": {
		  "T": {
			"type": "DT_FLOAT"
		  },
		  "Tshape": {
			"type": "DT_INT32"
		  }
		}
	  },
	  {
		"name": "ae_encoder/fc_bottleneck/LeakyRelu",
		"op": "LeakyRelu",
		"input": [
		  "ae_encoder/fc_bottleneck/BatchNorm/Reshape_1"
		],
		"attr": {
		  "T": {
			"type": "DT_FLOAT"
		  },
		  "alpha": {
			"f": 0.20000000298023224
		  }
		}
	  },
	  {
		"name": "strided_slice",
		"op": "StridedSlice",
		"input": [
		  "ae_encoder/fc_bottleneck/LeakyRelu",
		  "strided_slice/stack",
		  "strided_slice/stack",
		  "strided_slice/stack_2"
		],
		"attr": {
		  "Index": {
			"type": "DT_INT32"
		  },
		  "T": {
			"type": "DT_FLOAT"
		  },
		  "shrink_axis_mask": {
			"i": "0"
		  },
		  "ellipsis_mask": {
			"i": "0"
		  },
		  "begin_mask": {
			"i": "1"
		  },
		  "new_axis_mask": {
			"i": "0"
		  },
		  "end_mask": {
			"i": "1"
		  }
		}
	  },
	  {
		"name": "strided_slice_1",
		"op": "StridedSlice",
		"input": [
		  "ae_encoder/fc_bottleneck/LeakyRelu",
		  "strided_slice_1/stack",
		  "strided_slice/stack",
		  "strided_slice/stack_2"
		],
		"attr": {
		  "T": {
			"type": "DT_FLOAT"
		  },
		  "Index": {
			"type": "DT_INT32"
		  },
		  "shrink_axis_mask": {
			"i": "0"
		  },
		  "begin_mask": {
			"i": "0"
		  },
		  "ellipsis_mask": {
			"i": "0"
		  },
		  "new_axis_mask": {
			"i": "0"
		  },
		  "end_mask": {
			"i": "1"
		  }
		}
	  },
	  {
		"name": "mul",
		"op": "Mul",
		"input": [
		  "Placeholder_1",
		  "strided_slice"
		],
		"attr": {
		  "T": {
			"type": "DT_FLOAT"
		  }
		}
	  },
	  {
		"name": "mul_1",
		"op": "Mul",
		"input": [
		  "strided_slice_1",
		  "sub"
		],
		"attr": {
		  "T": {
			"type": "DT_FLOAT"
		  }
		}
	  },
	  {
		"name": "add",
		"op": "AddV2",
		"input": [
		  "mul",
		  "mul_1"
		],
		"attr": {
		  "T": {
			"type": "DT_FLOAT"
		  }
		}
	  },
	  {
		"name": "ae_decoder/fc_recon/fc/BiasAdd",
		"op": "_FusedMatMul",
		"input": [
		  "add",
		  "ae_decoder/fc_recon/fc/kernel",
		  "ae_decoder/fc_recon/fc/bias"
		],
		"device": "/device:CPU:0",
		"attr": {
		  "transpose_b": {
			"b": false
		  },
		  "T": {
			"type": "DT_FLOAT"
		  },
		  "num_args": {
			"i": "1"
		  },
		  "epsilon": {
			"f": 0.0
		  },
		  "fused_ops": {
			"list": {
			  "s": [
				"Qmlhc0FkZA=="
			  ]
			}
		  },
		  "transpose_a": {
			"b": false
		  }
		}
	  },
	  {
		"name": "ae_decoder/fc_recon/BatchNorm/Shape",
		"op": "Shape",
		"input": [
		  "ae_decoder/fc_recon/fc/BiasAdd"
		],
		"attr": {
		  "T": {
			"type": "DT_FLOAT"
		  },
		  "out_type": {
			"type": "DT_INT32"
		  }
		}
	  },
	  {
		"name": "ae_decoder/fc_recon/BatchNorm/Reshape",
		"op": "Reshape",
		"input": [
		  "ae_decoder/fc_recon/fc/BiasAdd",
		  "ae_decoder/fc_recon/BatchNorm/Reshape/shape"
		],
		"attr": {
		  "T": {
			"type": "DT_FLOAT"
		  },
		  "Tshape": {
			"type": "DT_INT32"
		  }
		}
	  },
	  {
		"name": "ae_decoder/fc_recon/BatchNorm/FusedBatchNormV3",
		"op": "FusedBatchNormV3",
		"input": [
		  "ae_decoder/fc_recon/BatchNorm/Reshape",
		  "ae_decoder/fc_recon/BatchNorm/Const",
		  "ae_decoder/fc_recon/BatchNorm/beta",
		  "ae_encoder/res1/BatchNorm/Const_1",
		  "ae_encoder/res1/BatchNorm/Const_1"
		],
		"attr": {
		  "epsilon": {
			"f": 0.0010000000474974513
		  },
		  "T": {
			"type": "DT_FLOAT"
		  },
		  "U": {
			"type": "DT_FLOAT"
		  },
		  "data_format": {
			"s": "TkhXQw=="
		  },
		  "is_training": {
			"b": true
		  }
		}
	  },
	  {
		"name": "ae_decoder/fc_recon/BatchNorm/Reshape_1",
		"op": "Reshape",
		"input": [
		  "ae_decoder/fc_recon/BatchNorm/FusedBatchNormV3",
		  "ae_decoder/fc_recon/BatchNorm/Shape"
		],
		"attr": {
		  "T": {
			"type": "DT_FLOAT"
		  },
		  "Tshape": {
			"type": "DT_INT32"
		  }
		}
	  },
	  {
		"name": "ae_decoder/fc_recon/LeakyRelu",
		"op": "LeakyRelu",
		"input": [
		  "ae_decoder/fc_recon/BatchNorm/Reshape_1"
		],
		"attr": {
		  "T": {
			"type": "DT_FLOAT"
		  },
		  "alpha": {
			"f": 0.20000000298023224
		  }
		}
	  },
	  {
		"name": "ae_decoder/Reshape",
		"op": "Reshape",
		"input": [
		  "ae_decoder/fc_recon/LeakyRelu",
		  "ae_decoder/Reshape/shape"
		],
		"attr": {
		  "T": {
			"type": "DT_FLOAT"
		  },
		  "Tshape": {
			"type": "DT_INT32"
		  }
		}
	  },
	  {
		"name": "ae_decoder/res1/conv2d_16/Conv2D",
		"op": "Conv2D",
		"input": [
		  "ae_decoder/Reshape",
		  "ae_decoder/res1/conv2d_16/kernel"
		],
		"device": "/device:CPU:0",
		"attr": {
		  "dilations": {
			"list": {
			  "i": [
				"1",
				"1",
				"1",
				"1"
			  ]
			}
		  },
		  "T": {
			"type": "DT_FLOAT"
		  },
		  "strides": {
			"list": {
			  "i": [
				"1",
				"1",
				"1",
				"1"
			  ]
			}
		  },
		  "data_format": {
			"s": "TkhXQw=="
		  },
		  "use_cudnn_on_gpu": {
			"b": true
		  },
		  "explicit_paddings": {
			"list": {}
		  },
		  "padding": {
			"s": "U0FNRQ=="
		  }
		}
	  },
	  {
		"name": "ae_decoder/res1/separable_conv2d_8/separable_conv2d/depthwise",
		"op": "DepthwiseConv2dNative",
		"input": [
		  "ae_decoder/Reshape",
		  "ae_decoder/res1/separable_conv2d_8/depthwise_kernel"
		],
		"attr": {
		  "padding": {
			"s": "U0FNRQ=="
		  },
		  "dilations": {
			"list": {
			  "i": [
				"1",
				"1",
				"1",
				"1"
			  ]
			}
		  },
		  "T": {
			"type": "DT_FLOAT"
		  },
		  "strides": {
			"list": {
			  "i": [
				"1",
				"1",
				"1",
				"1"
			  ]
			}
		  },
		  "data_format": {
			"s": "TkhXQw=="
		  }
		}
	  },
	  {
		"name": "ae_decoder/res1/BatchNorm_2/FusedBatchNormV3",
		"op": "FusedBatchNormV3",
		"input": [
		  "ae_decoder/res1/conv2d_16/Conv2D",
		  "ae_encoder/res8/BatchNorm/Const",
		  "ae_decoder/res1/BatchNorm_2/beta",
		  "ae_encoder/res1/BatchNorm/Const_1",
		  "ae_encoder/res1/BatchNorm/Const_1"
		],
		"attr": {
		  "epsilon": {
			"f": 0.0010000000474974513
		  },
		  "T": {
			"type": "DT_FLOAT"
		  },
		  "U": {
			"type": "DT_FLOAT"
		  },
		  "data_format": {
			"s": "TkhXQw=="
		  },
		  "is_training": {
			"b": true
		  }
		}
	  },
	  {
		"name": "ae_decoder/res1/separable_conv2d_8/separable_conv2d",
		"op": "Conv2D",
		"input": [
		  "ae_decoder/res1/separable_conv2d_8/separable_conv2d/depthwise",
		  "ae_decoder/res1/separable_conv2d_8/pointwise_kernel"
		],
		"device": "/device:CPU:0",
		"attr": {
		  "dilations": {
			"list": {
			  "i": [
				"1",
				"1",
				"1",
				"1"
			  ]
			}
		  },
		  "T": {
			"type": "DT_FLOAT"
		  },
		  "data_format": {
			"s": "TkhXQw=="
		  },
		  "strides": {
			"list": {
			  "i": [
				"1",
				"1",
				"1",
				"1"
			  ]
			}
		  },
		  "explicit_paddings": {
			"list": {}
		  },
		  "use_cudnn_on_gpu": {
			"b": true
		  },
		  "padding": {
			"s": "VkFMSUQ="
		  }
		}
	  },
	  {
		"name": "ae_decoder/res1/BatchNorm/FusedBatchNormV3",
		"op": "FusedBatchNormV3",
		"input": [
		  "ae_decoder/res1/separable_conv2d_8/separable_conv2d",
		  "ae_encoder/res8/BatchNorm/Const",
		  "ae_decoder/res1/BatchNorm/beta",
		  "ae_encoder/res1/BatchNorm/Const_1",
		  "ae_encoder/res1/BatchNorm/Const_1"
		],
		"attr": {
		  "epsilon": {
			"f": 0.0010000000474974513
		  },
		  "T": {
			"type": "DT_FLOAT"
		  },
		  "U": {
			"type": "DT_FLOAT"
		  },
		  "data_format": {
			"s": "TkhXQw=="
		  },
		  "is_training": {
			"b": true
		  }
		}
	  },
	  {
		"name": "ae_decoder/res1/LeakyRelu",
		"op": "LeakyRelu",
		"input": [
		  "ae_decoder/res1/BatchNorm/FusedBatchNormV3"
		],
		"attr": {
		  "T": {
			"type": "DT_FLOAT"
		  },
		  "alpha": {
			"f": 0.20000000298023224
		  }
		}
	  },
	  {
		"name": "ae_decoder/res1/conv2d_17/Conv2D",
		"op": "Conv2D",
		"input": [
		  "ae_decoder/res1/LeakyRelu",
		  "ae_decoder/res1/conv2d_17/kernel"
		],
		"device": "/device:CPU:0",
		"attr": {
		  "dilations": {
			"list": {
			  "i": [
				"1",
				"1",
				"1",
				"1"
			  ]
			}
		  },
		  "T": {
			"type": "DT_FLOAT"
		  },
		  "strides": {
			"list": {
			  "i": [
				"1",
				"1",
				"1",
				"1"
			  ]
			}
		  },
		  "data_format": {
			"s": "TkhXQw=="
		  },
		  "explicit_paddings": {
			"list": {}
		  },
		  "use_cudnn_on_gpu": {
			"b": true
		  },
		  "padding": {
			"s": "U0FNRQ=="
		  }
		}
	  },
	  {
		"name": "ae_decoder/res1/BatchNorm_1/FusedBatchNormV3",
		"op": "FusedBatchNormV3",
		"input": [
		  "ae_decoder/res1/conv2d_17/Conv2D",
		  "ae_encoder/res8/BatchNorm/Const",
		  "ae_decoder/res1/BatchNorm_1/beta",
		  "ae_encoder/res1/BatchNorm/Const_1",
		  "ae_encoder/res1/BatchNorm/Const_1"
		],
		"attr": {
		  "epsilon": {
			"f": 0.0010000000474974513
		  },
		  "T": {
			"type": "DT_FLOAT"
		  },
		  "U": {
			"type": "DT_FLOAT"
		  },
		  "data_format": {
			"s": "TkhXQw=="
		  },
		  "is_training": {
			"b": true
		  }
		}
	  },
	  {
		"name": "ae_decoder/res1/LeakyRelu_1",
		"op": "LeakyRelu",
		"input": [
		  "ae_decoder/res1/BatchNorm_1/FusedBatchNormV3"
		],
		"attr": {
		  "T": {
			"type": "DT_FLOAT"
		  },
		  "alpha": {
			"f": 0.20000000298023224
		  }
		}
	  },
	  {
		"name": "ae_decoder/res1/Add",
		"op": "Add",
		"input": [
		  "ae_decoder/res1/BatchNorm_2/FusedBatchNormV3",
		  "ae_decoder/res1/LeakyRelu_1"
		],
		"attr": {
		  "T": {
			"type": "DT_FLOAT"
		  }
		}
	  },
	  {
		"name": "ae_decoder/up_sampling2d/Shape",
		"op": "Shape",
		"input": [
		  "ae_decoder/res1/Add"
		],
		"attr": {
		  "T": {
			"type": "DT_FLOAT"
		  },
		  "out_type": {
			"type": "DT_INT32"
		  }
		}
	  },
	  {
		"name": "ae_decoder/up_sampling2d/strided_slice",
		"op": "StridedSlice",
		"input": [
		  "ae_decoder/up_sampling2d/Shape",
		  "strided_slice_1/stack",
		  "ae_decoder/up_sampling2d_3/strided_slice/stack_1",
		  "strided_slice_1/stack"
		],
		"attr": {
		  "Index": {
			"type": "DT_INT32"
		  },
		  "T": {
			"type": "DT_INT32"
		  },
		  "shrink_axis_mask": {
			"i": "0"
		  },
		  "ellipsis_mask": {
			"i": "0"
		  },
		  "begin_mask": {
			"i": "0"
		  },
		  "new_axis_mask": {
			"i": "0"
		  },
		  "end_mask": {
			"i": "0"
		  }
		}
	  },
	  {
		"name": "ae_decoder/up_sampling2d/mul",
		"op": "Mul",
		"input": [
		  "ae_decoder/up_sampling2d/strided_slice",
		  "ae_decoder/up_sampling2d_3/Const"
		],
		"attr": {
		  "T": {
			"type": "DT_INT32"
		  }
		}
	  },
	  {
		"name": "ae_decoder/up_sampling2d/resize/ResizeNearestNeighbor",
		"op": "ResizeNearestNeighbor",
		"input": [
		  "ae_decoder/res1/Add",
		  "ae_decoder/up_sampling2d/mul"
		],
		"attr": {
		  "align_corners": {
			"b": false
		  },
		  "half_pixel_centers": {
			"b": true
		  },
		  "T": {
			"type": "DT_FLOAT"
		  }
		}
	  },
	  {
		"name": "ae_decoder/res2/conv2d_18/Conv2D",
		"op": "Conv2D",
		"input": [
		  "ae_decoder/up_sampling2d/resize/ResizeNearestNeighbor",
		  "ae_decoder/res2/conv2d_18/kernel"
		],
		"device": "/device:CPU:0",
		"attr": {
		  "dilations": {
			"list": {
			  "i": [
				"1",
				"1",
				"1",
				"1"
			  ]
			}
		  },
		  "T": {
			"type": "DT_FLOAT"
		  },
		  "data_format": {
			"s": "TkhXQw=="
		  },
		  "strides": {
			"list": {
			  "i": [
				"1",
				"1",
				"1",
				"1"
			  ]
			}
		  },
		  "explicit_paddings": {
			"list": {}
		  },
		  "use_cudnn_on_gpu": {
			"b": true
		  },
		  "padding": {
			"s": "U0FNRQ=="
		  }
		}
	  },
	  {
		"name": "ae_decoder/res2/separable_conv2d_9/separable_conv2d/depthwise",
		"op": "DepthwiseConv2dNative",
		"input": [
		  "ae_decoder/up_sampling2d/resize/ResizeNearestNeighbor",
		  "ae_decoder/res2/separable_conv2d_9/depthwise_kernel"
		],
		"attr": {
		  "padding": {
			"s": "U0FNRQ=="
		  },
		  "dilations": {
			"list": {
			  "i": [
				"1",
				"1",
				"1",
				"1"
			  ]
			}
		  },
		  "T": {
			"type": "DT_FLOAT"
		  },
		  "strides": {
			"list": {
			  "i": [
				"1",
				"1",
				"1",
				"1"
			  ]
			}
		  },
		  "data_format": {
			"s": "TkhXQw=="
		  }
		}
	  },
	  {
		"name": "ae_decoder/res2/BatchNorm_2/FusedBatchNormV3",
		"op": "FusedBatchNormV3",
		"input": [
		  "ae_decoder/res2/conv2d_18/Conv2D",
		  "ae_encoder/res8/BatchNorm/Const",
		  "ae_decoder/res2/BatchNorm_2/beta",
		  "ae_encoder/res1/BatchNorm/Const_1",
		  "ae_encoder/res1/BatchNorm/Const_1"
		],
		"attr": {
		  "epsilon": {
			"f": 0.0010000000474974513
		  },
		  "T": {
			"type": "DT_FLOAT"
		  },
		  "U": {
			"type": "DT_FLOAT"
		  },
		  "data_format": {
			"s": "TkhXQw=="
		  },
		  "is_training": {
			"b": true
		  }
		}
	  },
	  {
		"name": "ae_decoder/res2/separable_conv2d_9/separable_conv2d",
		"op": "Conv2D",
		"input": [
		  "ae_decoder/res2/separable_conv2d_9/separable_conv2d/depthwise",
		  "ae_decoder/res2/separable_conv2d_9/pointwise_kernel"
		],
		"device": "/device:CPU:0",
		"attr": {
		  "dilations": {
			"list": {
			  "i": [
				"1",
				"1",
				"1",
				"1"
			  ]
			}
		  },
		  "T": {
			"type": "DT_FLOAT"
		  },
		  "strides": {
			"list": {
			  "i": [
				"1",
				"1",
				"1",
				"1"
			  ]
			}
		  },
		  "data_format": {
			"s": "TkhXQw=="
		  },
		  "use_cudnn_on_gpu": {
			"b": true
		  },
		  "explicit_paddings": {
			"list": {}
		  },
		  "padding": {
			"s": "VkFMSUQ="
		  }
		}
	  },
	  {
		"name": "ae_decoder/res2/BatchNorm/FusedBatchNormV3",
		"op": "FusedBatchNormV3",
		"input": [
		  "ae_decoder/res2/separable_conv2d_9/separable_conv2d",
		  "ae_encoder/res8/BatchNorm/Const",
		  "ae_decoder/res2/BatchNorm/beta",
		  "ae_encoder/res1/BatchNorm/Const_1",
		  "ae_encoder/res1/BatchNorm/Const_1"
		],
		"attr": {
		  "epsilon": {
			"f": 0.0010000000474974513
		  },
		  "T": {
			"type": "DT_FLOAT"
		  },
		  "U": {
			"type": "DT_FLOAT"
		  },
		  "data_format": {
			"s": "TkhXQw=="
		  },
		  "is_training": {
			"b": true
		  }
		}
	  },
	  {
		"name": "ae_decoder/res2/LeakyRelu",
		"op": "LeakyRelu",
		"input": [
		  "ae_decoder/res2/BatchNorm/FusedBatchNormV3"
		],
		"attr": {
		  "T": {
			"type": "DT_FLOAT"
		  },
		  "alpha": {
			"f": 0.20000000298023224
		  }
		}
	  },
	  {
		"name": "ae_decoder/res2/conv2d_19/Conv2D",
		"op": "Conv2D",
		"input": [
		  "ae_decoder/res2/LeakyRelu",
		  "ae_decoder/res2/conv2d_19/kernel"
		],
		"device": "/device:CPU:0",
		"attr": {
		  "dilations": {
			"list": {
			  "i": [
				"1",
				"1",
				"1",
				"1"
			  ]
			}
		  },
		  "T": {
			"type": "DT_FLOAT"
		  },
		  "data_format": {
			"s": "TkhXQw=="
		  },
		  "strides": {
			"list": {
			  "i": [
				"1",
				"1",
				"1",
				"1"
			  ]
			}
		  },
		  "use_cudnn_on_gpu": {
			"b": true
		  },
		  "explicit_paddings": {
			"list": {}
		  },
		  "padding": {
			"s": "U0FNRQ=="
		  }
		}
	  },
	  {
		"name": "ae_decoder/res2/BatchNorm_1/FusedBatchNormV3",
		"op": "FusedBatchNormV3",
		"input": [
		  "ae_decoder/res2/conv2d_19/Conv2D",
		  "ae_encoder/res8/BatchNorm/Const",
		  "ae_decoder/res2/BatchNorm_1/beta",
		  "ae_encoder/res1/BatchNorm/Const_1",
		  "ae_encoder/res1/BatchNorm/Const_1"
		],
		"attr": {
		  "epsilon": {
			"f": 0.0010000000474974513
		  },
		  "T": {
			"type": "DT_FLOAT"
		  },
		  "U": {
			"type": "DT_FLOAT"
		  },
		  "data_format": {
			"s": "TkhXQw=="
		  },
		  "is_training": {
			"b": true
		  }
		}
	  },
	  {
		"name": "ae_decoder/res2/LeakyRelu_1",
		"op": "LeakyRelu",
		"input": [
		  "ae_decoder/res2/BatchNorm_1/FusedBatchNormV3"
		],
		"attr": {
		  "T": {
			"type": "DT_FLOAT"
		  },
		  "alpha": {
			"f": 0.20000000298023224
		  }
		}
	  },
	  {
		"name": "ae_decoder/res2/Add",
		"op": "Add",
		"input": [
		  "ae_decoder/res2/BatchNorm_2/FusedBatchNormV3",
		  "ae_decoder/res2/LeakyRelu_1"
		],
		"attr": {
		  "T": {
			"type": "DT_FLOAT"
		  }
		}
	  },
	  {
		"name": "ae_decoder/up_sampling2d_1/Shape",
		"op": "Shape",
		"input": [
		  "ae_decoder/res2/Add"
		],
		"attr": {
		  "T": {
			"type": "DT_FLOAT"
		  },
		  "out_type": {
			"type": "DT_INT32"
		  }
		}
	  },
	  {
		"name": "ae_decoder/up_sampling2d_1/strided_slice",
		"op": "StridedSlice",
		"input": [
		  "ae_decoder/up_sampling2d_1/Shape",
		  "strided_slice_1/stack",
		  "ae_decoder/up_sampling2d_3/strided_slice/stack_1",
		  "strided_slice_1/stack"
		],
		"attr": {
		  "Index": {
			"type": "DT_INT32"
		  },
		  "T": {
			"type": "DT_INT32"
		  },
		  "shrink_axis_mask": {
			"i": "0"
		  },
		  "begin_mask": {
			"i": "0"
		  },
		  "ellipsis_mask": {
			"i": "0"
		  },
		  "new_axis_mask": {
			"i": "0"
		  },
		  "end_mask": {
			"i": "0"
		  }
		}
	  },
	  {
		"name": "ae_decoder/up_sampling2d_1/mul",
		"op": "Mul",
		"input": [
		  "ae_decoder/up_sampling2d_1/strided_slice",
		  "ae_decoder/up_sampling2d_3/Const"
		],
		"attr": {
		  "T": {
			"type": "DT_INT32"
		  }
		}
	  },
	  {
		"name": "ae_decoder/up_sampling2d_1/resize/ResizeNearestNeighbor",
		"op": "ResizeNearestNeighbor",
		"input": [
		  "ae_decoder/res2/Add",
		  "ae_decoder/up_sampling2d_1/mul"
		],
		"attr": {
		  "align_corners": {
			"b": false
		  },
		  "half_pixel_centers": {
			"b": true
		  },
		  "T": {
			"type": "DT_FLOAT"
		  }
		}
	  },
	  {
		"name": "ae_decoder/res3/conv2d_20/Conv2D",
		"op": "Conv2D",
		"input": [
		  "ae_decoder/up_sampling2d_1/resize/ResizeNearestNeighbor",
		  "ae_decoder/res3/conv2d_20/kernel"
		],
		"device": "/device:CPU:0",
		"attr": {
		  "dilations": {
			"list": {
			  "i": [
				"1",
				"1",
				"1",
				"1"
			  ]
			}
		  },
		  "T": {
			"type": "DT_FLOAT"
		  },
		  "data_format": {
			"s": "TkhXQw=="
		  },
		  "strides": {
			"list": {
			  "i": [
				"1",
				"1",
				"1",
				"1"
			  ]
			}
		  },
		  "explicit_paddings": {
			"list": {}
		  },
		  "use_cudnn_on_gpu": {
			"b": true
		  },
		  "padding": {
			"s": "U0FNRQ=="
		  }
		}
	  },
	  {
		"name": "ae_decoder/res3/separable_conv2d_10/separable_conv2d/depthwise",
		"op": "DepthwiseConv2dNative",
		"input": [
		  "ae_decoder/up_sampling2d_1/resize/ResizeNearestNeighbor",
		  "ae_decoder/res3/separable_conv2d_10/depthwise_kernel"
		],
		"attr": {
		  "padding": {
			"s": "U0FNRQ=="
		  },
		  "dilations": {
			"list": {
			  "i": [
				"1",
				"1",
				"1",
				"1"
			  ]
			}
		  },
		  "T": {
			"type": "DT_FLOAT"
		  },
		  "strides": {
			"list": {
			  "i": [
				"1",
				"1",
				"1",
				"1"
			  ]
			}
		  },
		  "data_format": {
			"s": "TkhXQw=="
		  }
		}
	  },
	  {
		"name": "ae_decoder/res3/BatchNorm_2/FusedBatchNormV3",
		"op": "FusedBatchNormV3",
		"input": [
		  "ae_decoder/res3/conv2d_20/Conv2D",
		  "ae_encoder/res6/BatchNorm/Const",
		  "ae_decoder/res3/BatchNorm_2/beta",
		  "ae_encoder/res1/BatchNorm/Const_1",
		  "ae_encoder/res1/BatchNorm/Const_1"
		],
		"attr": {
		  "epsilon": {
			"f": 0.0010000000474974513
		  },
		  "T": {
			"type": "DT_FLOAT"
		  },
		  "U": {
			"type": "DT_FLOAT"
		  },
		  "data_format": {
			"s": "TkhXQw=="
		  },
		  "is_training": {
			"b": true
		  }
		}
	  },
	  {
		"name": "ae_decoder/res3/separable_conv2d_10/separable_conv2d",
		"op": "Conv2D",
		"input": [
		  "ae_decoder/res3/separable_conv2d_10/separable_conv2d/depthwise",
		  "ae_decoder/res3/separable_conv2d_10/pointwise_kernel"
		],
		"device": "/device:CPU:0",
		"attr": {
		  "dilations": {
			"list": {
			  "i": [
				"1",
				"1",
				"1",
				"1"
			  ]
			}
		  },
		  "T": {
			"type": "DT_FLOAT"
		  },
		  "data_format": {
			"s": "TkhXQw=="
		  },
		  "strides": {
			"list": {
			  "i": [
				"1",
				"1",
				"1",
				"1"
			  ]
			}
		  },
		  "explicit_paddings": {
			"list": {}
		  },
		  "use_cudnn_on_gpu": {
			"b": true
		  },
		  "padding": {
			"s": "VkFMSUQ="
		  }
		}
	  },
	  {
		"name": "ae_decoder/res3/BatchNorm/FusedBatchNormV3",
		"op": "FusedBatchNormV3",
		"input": [
		  "ae_decoder/res3/separable_conv2d_10/separable_conv2d",
		  "ae_encoder/res6/BatchNorm/Const",
		  "ae_decoder/res3/BatchNorm/beta",
		  "ae_encoder/res1/BatchNorm/Const_1",
		  "ae_encoder/res1/BatchNorm/Const_1"
		],
		"attr": {
		  "epsilon": {
			"f": 0.0010000000474974513
		  },
		  "T": {
			"type": "DT_FLOAT"
		  },
		  "U": {
			"type": "DT_FLOAT"
		  },
		  "data_format": {
			"s": "TkhXQw=="
		  },
		  "is_training": {
			"b": true
		  }
		}
	  },
	  {
		"name": "ae_decoder/res3/LeakyRelu",
		"op": "LeakyRelu",
		"input": [
		  "ae_decoder/res3/BatchNorm/FusedBatchNormV3"
		],
		"attr": {
		  "T": {
			"type": "DT_FLOAT"
		  },
		  "alpha": {
			"f": 0.20000000298023224
		  }
		}
	  },
	  {
		"name": "ae_decoder/res3/conv2d_21/Conv2D",
		"op": "Conv2D",
		"input": [
		  "ae_decoder/res3/LeakyRelu",
		  "ae_decoder/res3/conv2d_21/kernel"
		],
		"device": "/device:CPU:0",
		"attr": {
		  "dilations": {
			"list": {
			  "i": [
				"1",
				"1",
				"1",
				"1"
			  ]
			}
		  },
		  "T": {
			"type": "DT_FLOAT"
		  },
		  "data_format": {
			"s": "TkhXQw=="
		  },
		  "strides": {
			"list": {
			  "i": [
				"1",
				"1",
				"1",
				"1"
			  ]
			}
		  },
		  "use_cudnn_on_gpu": {
			"b": true
		  },
		  "explicit_paddings": {
			"list": {}
		  },
		  "padding": {
			"s": "U0FNRQ=="
		  }
		}
	  },
	  {
		"name": "ae_decoder/res3/BatchNorm_1/FusedBatchNormV3",
		"op": "FusedBatchNormV3",
		"input": [
		  "ae_decoder/res3/conv2d_21/Conv2D",
		  "ae_encoder/res6/BatchNorm/Const",
		  "ae_decoder/res3/BatchNorm_1/beta",
		  "ae_encoder/res1/BatchNorm/Const_1",
		  "ae_encoder/res1/BatchNorm/Const_1"
		],
		"attr": {
		  "epsilon": {
			"f": 0.0010000000474974513
		  },
		  "T": {
			"type": "DT_FLOAT"
		  },
		  "U": {
			"type": "DT_FLOAT"
		  },
		  "data_format": {
			"s": "TkhXQw=="
		  },
		  "is_training": {
			"b": true
		  }
		}
	  },
	  {
		"name": "ae_decoder/res3/LeakyRelu_1",
		"op": "LeakyRelu",
		"input": [
		  "ae_decoder/res3/BatchNorm_1/FusedBatchNormV3"
		],
		"attr": {
		  "T": {
			"type": "DT_FLOAT"
		  },
		  "alpha": {
			"f": 0.20000000298023224
		  }
		}
	  },
	  {
		"name": "ae_decoder/res3/Add",
		"op": "Add",
		"input": [
		  "ae_decoder/res3/BatchNorm_2/FusedBatchNormV3",
		  "ae_decoder/res3/LeakyRelu_1"
		],
		"attr": {
		  "T": {
			"type": "DT_FLOAT"
		  }
		}
	  },
	  {
		"name": "ae_decoder/res4/conv2d_22/Conv2D",
		"op": "Conv2D",
		"input": [
		  "ae_decoder/res3/Add",
		  "ae_decoder/res4/conv2d_22/kernel"
		],
		"device": "/device:CPU:0",
		"attr": {
		  "dilations": {
			"list": {
			  "i": [
				"1",
				"1",
				"1",
				"1"
			  ]
			}
		  },
		  "T": {
			"type": "DT_FLOAT"
		  },
		  "data_format": {
			"s": "TkhXQw=="
		  },
		  "strides": {
			"list": {
			  "i": [
				"1",
				"1",
				"1",
				"1"
			  ]
			}
		  },
		  "explicit_paddings": {
			"list": {}
		  },
		  "use_cudnn_on_gpu": {
			"b": true
		  },
		  "padding": {
			"s": "U0FNRQ=="
		  }
		}
	  },
	  {
		"name": "ae_decoder/res4/separable_conv2d_11/separable_conv2d/depthwise",
		"op": "DepthwiseConv2dNative",
		"input": [
		  "ae_decoder/res3/Add",
		  "ae_decoder/res4/separable_conv2d_11/depthwise_kernel"
		],
		"attr": {
		  "padding": {
			"s": "U0FNRQ=="
		  },
		  "dilations": {
			"list": {
			  "i": [
				"1",
				"1",
				"1",
				"1"
			  ]
			}
		  },
		  "T": {
			"type": "DT_FLOAT"
		  },
		  "strides": {
			"list": {
			  "i": [
				"1",
				"1",
				"1",
				"1"
			  ]
			}
		  },
		  "data_format": {
			"s": "TkhXQw=="
		  }
		}
	  },
	  {
		"name": "ae_decoder/res4/BatchNorm_2/FusedBatchNormV3",
		"op": "FusedBatchNormV3",
		"input": [
		  "ae_decoder/res4/conv2d_22/Conv2D",
		  "ae_encoder/res6/BatchNorm/Const",
		  "ae_decoder/res4/BatchNorm_2/beta",
		  "ae_encoder/res1/BatchNorm/Const_1",
		  "ae_encoder/res1/BatchNorm/Const_1"
		],
		"attr": {
		  "epsilon": {
			"f": 0.0010000000474974513
		  },
		  "T": {
			"type": "DT_FLOAT"
		  },
		  "U": {
			"type": "DT_FLOAT"
		  },
		  "data_format": {
			"s": "TkhXQw=="
		  },
		  "is_training": {
			"b": true
		  }
		}
	  },
	  {
		"name": "ae_decoder/res4/separable_conv2d_11/separable_conv2d",
		"op": "Conv2D",
		"input": [
		  "ae_decoder/res4/separable_conv2d_11/separable_conv2d/depthwise",
		  "ae_decoder/res4/separable_conv2d_11/pointwise_kernel"
		],
		"device": "/device:CPU:0",
		"attr": {
		  "dilations": {
			"list": {
			  "i": [
				"1",
				"1",
				"1",
				"1"
			  ]
			}
		  },
		  "T": {
			"type": "DT_FLOAT"
		  },
		  "strides": {
			"list": {
			  "i": [
				"1",
				"1",
				"1",
				"1"
			  ]
			}
		  },
		  "data_format": {
			"s": "TkhXQw=="
		  },
		  "use_cudnn_on_gpu": {
			"b": true
		  },
		  "explicit_paddings": {
			"list": {}
		  },
		  "padding": {
			"s": "VkFMSUQ="
		  }
		}
	  },
	  {
		"name": "ae_decoder/res4/BatchNorm/FusedBatchNormV3",
		"op": "FusedBatchNormV3",
		"input": [
		  "ae_decoder/res4/separable_conv2d_11/separable_conv2d",
		  "ae_encoder/res6/BatchNorm/Const",
		  "ae_decoder/res4/BatchNorm/beta",
		  "ae_encoder/res1/BatchNorm/Const_1",
		  "ae_encoder/res1/BatchNorm/Const_1"
		],
		"attr": {
		  "epsilon": {
			"f": 0.0010000000474974513
		  },
		  "T": {
			"type": "DT_FLOAT"
		  },
		  "U": {
			"type": "DT_FLOAT"
		  },
		  "data_format": {
			"s": "TkhXQw=="
		  },
		  "is_training": {
			"b": true
		  }
		}
	  },
	  {
		"name": "ae_decoder/res4/LeakyRelu",
		"op": "LeakyRelu",
		"input": [
		  "ae_decoder/res4/BatchNorm/FusedBatchNormV3"
		],
		"attr": {
		  "T": {
			"type": "DT_FLOAT"
		  },
		  "alpha": {
			"f": 0.20000000298023224
		  }
		}
	  },
	  {
		"name": "ae_decoder/res4/conv2d_23/Conv2D",
		"op": "Conv2D",
		"input": [
		  "ae_decoder/res4/LeakyRelu",
		  "ae_decoder/res4/conv2d_23/kernel"
		],
		"device": "/device:CPU:0",
		"attr": {
		  "dilations": {
			"list": {
			  "i": [
				"1",
				"1",
				"1",
				"1"
			  ]
			}
		  },
		  "T": {
			"type": "DT_FLOAT"
		  },
		  "strides": {
			"list": {
			  "i": [
				"1",
				"1",
				"1",
				"1"
			  ]
			}
		  },
		  "data_format": {
			"s": "TkhXQw=="
		  },
		  "use_cudnn_on_gpu": {
			"b": true
		  },
		  "explicit_paddings": {
			"list": {}
		  },
		  "padding": {
			"s": "U0FNRQ=="
		  }
		}
	  },
	  {
		"name": "ae_decoder/res4/BatchNorm_1/FusedBatchNormV3",
		"op": "FusedBatchNormV3",
		"input": [
		  "ae_decoder/res4/conv2d_23/Conv2D",
		  "ae_encoder/res6/BatchNorm/Const",
		  "ae_decoder/res4/BatchNorm_1/beta",
		  "ae_encoder/res1/BatchNorm/Const_1",
		  "ae_encoder/res1/BatchNorm/Const_1"
		],
		"attr": {
		  "epsilon": {
			"f": 0.0010000000474974513
		  },
		  "T": {
			"type": "DT_FLOAT"
		  },
		  "U": {
			"type": "DT_FLOAT"
		  },
		  "data_format": {
			"s": "TkhXQw=="
		  },
		  "is_training": {
			"b": true
		  }
		}
	  },
	  {
		"name": "ae_decoder/res4/LeakyRelu_1",
		"op": "LeakyRelu",
		"input": [
		  "ae_decoder/res4/BatchNorm_1/FusedBatchNormV3"
		],
		"attr": {
		  "T": {
			"type": "DT_FLOAT"
		  },
		  "alpha": {
			"f": 0.20000000298023224
		  }
		}
	  },
	  {
		"name": "ae_decoder/res4/Add",
		"op": "Add",
		"input": [
		  "ae_decoder/res4/BatchNorm_2/FusedBatchNormV3",
		  "ae_decoder/res4/LeakyRelu_1"
		],
		"attr": {
		  "T": {
			"type": "DT_FLOAT"
		  }
		}
	  },
	  {
		"name": "ae_decoder/up_sampling2d_2/Shape",
		"op": "Shape",
		"input": [
		  "ae_decoder/res4/Add"
		],
		"attr": {
		  "T": {
			"type": "DT_FLOAT"
		  },
		  "out_type": {
			"type": "DT_INT32"
		  }
		}
	  },
	  {
		"name": "ae_decoder/up_sampling2d_2/strided_slice",
		"op": "StridedSlice",
		"input": [
		  "ae_decoder/up_sampling2d_2/Shape",
		  "strided_slice_1/stack",
		  "ae_decoder/up_sampling2d_3/strided_slice/stack_1",
		  "strided_slice_1/stack"
		],
		"attr": {
		  "T": {
			"type": "DT_INT32"
		  },
		  "Index": {
			"type": "DT_INT32"
		  },
		  "shrink_axis_mask": {
			"i": "0"
		  },
		  "ellipsis_mask": {
			"i": "0"
		  },
		  "begin_mask": {
			"i": "0"
		  },
		  "new_axis_mask": {
			"i": "0"
		  },
		  "end_mask": {
			"i": "0"
		  }
		}
	  },
	  {
		"name": "ae_decoder/up_sampling2d_2/mul",
		"op": "Mul",
		"input": [
		  "ae_decoder/up_sampling2d_2/strided_slice",
		  "ae_decoder/up_sampling2d_3/Const"
		],
		"attr": {
		  "T": {
			"type": "DT_INT32"
		  }
		}
	  },
	  {
		"name": "ae_decoder/up_sampling2d_2/resize/ResizeNearestNeighbor",
		"op": "ResizeNearestNeighbor",
		"input": [
		  "ae_decoder/res4/Add",
		  "ae_decoder/up_sampling2d_2/mul"
		],
		"attr": {
		  "align_corners": {
			"b": false
		  },
		  "half_pixel_centers": {
			"b": true
		  },
		  "T": {
			"type": "DT_FLOAT"
		  }
		}
	  },
	  {
		"name": "ae_decoder/res6/separable_conv2d_12/separable_conv2d/depthwise",
		"op": "DepthwiseConv2dNative",
		"input": [
		  "ae_decoder/up_sampling2d_2/resize/ResizeNearestNeighbor",
		  "ae_decoder/res6/separable_conv2d_12/depthwise_kernel"
		],
		"attr": {
		  "padding": {
			"s": "U0FNRQ=="
		  },
		  "dilations": {
			"list": {
			  "i": [
				"1",
				"1",
				"1",
				"1"
			  ]
			}
		  },
		  "T": {
			"type": "DT_FLOAT"
		  },
		  "strides": {
			"list": {
			  "i": [
				"1",
				"1",
				"1",
				"1"
			  ]
			}
		  },
		  "data_format": {
			"s": "TkhXQw=="
		  }
		}
	  },
	  {
		"name": "ae_decoder/res6/conv2d_24/Conv2D",
		"op": "Conv2D",
		"input": [
		  "ae_decoder/up_sampling2d_2/resize/ResizeNearestNeighbor",
		  "ae_decoder/res6/conv2d_24/kernel"
		],
		"device": "/device:CPU:0",
		"attr": {
		  "dilations": {
			"list": {
			  "i": [
				"1",
				"1",
				"1",
				"1"
			  ]
			}
		  },
		  "T": {
			"type": "DT_FLOAT"
		  },
		  "data_format": {
			"s": "TkhXQw=="
		  },
		  "strides": {
			"list": {
			  "i": [
				"1",
				"1",
				"1",
				"1"
			  ]
			}
		  },
		  "explicit_paddings": {
			"list": {}
		  },
		  "use_cudnn_on_gpu": {
			"b": true
		  },
		  "padding": {
			"s": "U0FNRQ=="
		  }
		}
	  },
	  {
		"name": "ae_decoder/res6/separable_conv2d_12/separable_conv2d",
		"op": "Conv2D",
		"input": [
		  "ae_decoder/res6/separable_conv2d_12/separable_conv2d/depthwise",
		  "ae_decoder/res6/separable_conv2d_12/pointwise_kernel"
		],
		"device": "/device:CPU:0",
		"attr": {
		  "dilations": {
			"list": {
			  "i": [
				"1",
				"1",
				"1",
				"1"
			  ]
			}
		  },
		  "T": {
			"type": "DT_FLOAT"
		  },
		  "data_format": {
			"s": "TkhXQw=="
		  },
		  "strides": {
			"list": {
			  "i": [
				"1",
				"1",
				"1",
				"1"
			  ]
			}
		  },
		  "use_cudnn_on_gpu": {
			"b": true
		  },
		  "explicit_paddings": {
			"list": {}
		  },
		  "padding": {
			"s": "VkFMSUQ="
		  }
		}
	  },
	  {
		"name": "ae_decoder/res6/BatchNorm_2/FusedBatchNormV3",
		"op": "FusedBatchNormV3",
		"input": [
		  "ae_decoder/res6/conv2d_24/Conv2D",
		  "ae_decoder/res6/BatchNorm/Const",
		  "ae_decoder/res6/BatchNorm_2/beta",
		  "ae_encoder/res1/BatchNorm/Const_1",
		  "ae_encoder/res1/BatchNorm/Const_1"
		],
		"attr": {
		  "epsilon": {
			"f": 0.0010000000474974513
		  },
		  "T": {
			"type": "DT_FLOAT"
		  },
		  "U": {
			"type": "DT_FLOAT"
		  },
		  "data_format": {
			"s": "TkhXQw=="
		  },
		  "is_training": {
			"b": true
		  }
		}
	  },
	  {
		"name": "ae_decoder/res6/BatchNorm/FusedBatchNormV3",
		"op": "FusedBatchNormV3",
		"input": [
		  "ae_decoder/res6/separable_conv2d_12/separable_conv2d",
		  "ae_decoder/res6/BatchNorm/Const",
		  "ae_decoder/res6/BatchNorm/beta",
		  "ae_encoder/res1/BatchNorm/Const_1",
		  "ae_encoder/res1/BatchNorm/Const_1"
		],
		"attr": {
		  "epsilon": {
			"f": 0.0010000000474974513
		  },
		  "T": {
			"type": "DT_FLOAT"
		  },
		  "U": {
			"type": "DT_FLOAT"
		  },
		  "data_format": {
			"s": "TkhXQw=="
		  },
		  "is_training": {
			"b": true
		  }
		}
	  },
	  {
		"name": "ae_decoder/res6/LeakyRelu",
		"op": "LeakyRelu",
		"input": [
		  "ae_decoder/res6/BatchNorm/FusedBatchNormV3"
		],
		"attr": {
		  "T": {
			"type": "DT_FLOAT"
		  },
		  "alpha": {
			"f": 0.20000000298023224
		  }
		}
	  },
	  {
		"name": "ae_decoder/res6/conv2d_25/Conv2D",
		"op": "Conv2D",
		"input": [
		  "ae_decoder/res6/LeakyRelu",
		  "ae_decoder/res6/conv2d_25/kernel"
		],
		"device": "/device:CPU:0",
		"attr": {
		  "dilations": {
			"list": {
			  "i": [
				"1",
				"1",
				"1",
				"1"
			  ]
			}
		  },
		  "T": {
			"type": "DT_FLOAT"
		  },
		  "data_format": {
			"s": "TkhXQw=="
		  },
		  "strides": {
			"list": {
			  "i": [
				"1",
				"1",
				"1",
				"1"
			  ]
			}
		  },
		  "explicit_paddings": {
			"list": {}
		  },
		  "use_cudnn_on_gpu": {
			"b": true
		  },
		  "padding": {
			"s": "U0FNRQ=="
		  }
		}
	  },
	  {
		"name": "ae_decoder/res6/BatchNorm_1/FusedBatchNormV3",
		"op": "FusedBatchNormV3",
		"input": [
		  "ae_decoder/res6/conv2d_25/Conv2D",
		  "ae_decoder/res6/BatchNorm/Const",
		  "ae_decoder/res6/BatchNorm_1/beta",
		  "ae_encoder/res1/BatchNorm/Const_1",
		  "ae_encoder/res1/BatchNorm/Const_1"
		],
		"attr": {
		  "epsilon": {
			"f": 0.0010000000474974513
		  },
		  "T": {
			"type": "DT_FLOAT"
		  },
		  "U": {
			"type": "DT_FLOAT"
		  },
		  "data_format": {
			"s": "TkhXQw=="
		  },
		  "is_training": {
			"b": true
		  }
		}
	  },
	  {
		"name": "ae_decoder/res6/LeakyRelu_1",
		"op": "LeakyRelu",
		"input": [
		  "ae_decoder/res6/BatchNorm_1/FusedBatchNormV3"
		],
		"attr": {
		  "T": {
			"type": "DT_FLOAT"
		  },
		  "alpha": {
			"f": 0.20000000298023224
		  }
		}
	  },
	  {
		"name": "ae_decoder/res6/Add",
		"op": "Add",
		"input": [
		  "ae_decoder/res6/BatchNorm_2/FusedBatchNormV3",
		  "ae_decoder/res6/LeakyRelu_1"
		],
		"attr": {
		  "T": {
			"type": "DT_FLOAT"
		  }
		}
	  },
	  {
		"name": "ae_decoder/res8/conv2d_26/Conv2D",
		"op": "Conv2D",
		"input": [
		  "ae_decoder/res6/Add",
		  "ae_decoder/res8/conv2d_26/kernel"
		],
		"device": "/device:CPU:0",
		"attr": {
		  "dilations": {
			"list": {
			  "i": [
				"1",
				"1",
				"1",
				"1"
			  ]
			}
		  },
		  "T": {
			"type": "DT_FLOAT"
		  },
		  "data_format": {
			"s": "TkhXQw=="
		  },
		  "strides": {
			"list": {
			  "i": [
				"1",
				"1",
				"1",
				"1"
			  ]
			}
		  },
		  "explicit_paddings": {
			"list": {}
		  },
		  "use_cudnn_on_gpu": {
			"b": true
		  },
		  "padding": {
			"s": "U0FNRQ=="
		  }
		}
	  },
	  {
		"name": "ae_decoder/res8/separable_conv2d_13/separable_conv2d/depthwise",
		"op": "DepthwiseConv2dNative",
		"input": [
		  "ae_decoder/res6/Add",
		  "ae_decoder/res8/separable_conv2d_13/depthwise_kernel"
		],
		"attr": {
		  "padding": {
			"s": "U0FNRQ=="
		  },
		  "dilations": {
			"list": {
			  "i": [
				"1",
				"1",
				"1",
				"1"
			  ]
			}
		  },
		  "T": {
			"type": "DT_FLOAT"
		  },
		  "strides": {
			"list": {
			  "i": [
				"1",
				"1",
				"1",
				"1"
			  ]
			}
		  },
		  "data_format": {
			"s": "TkhXQw=="
		  }
		}
	  },
	  {
		"name": "ae_decoder/res8/BatchNorm_2/FusedBatchNormV3",
		"op": "FusedBatchNormV3",
		"input": [
		  "ae_decoder/res8/conv2d_26/Conv2D",
		  "ae_decoder/res6/BatchNorm/Const",
		  "ae_decoder/res8/BatchNorm_2/beta",
		  "ae_encoder/res1/BatchNorm/Const_1",
		  "ae_encoder/res1/BatchNorm/Const_1"
		],
		"attr": {
		  "epsilon": {
			"f": 0.0010000000474974513
		  },
		  "T": {
			"type": "DT_FLOAT"
		  },
		  "U": {
			"type": "DT_FLOAT"
		  },
		  "data_format": {
			"s": "TkhXQw=="
		  },
		  "is_training": {
			"b": true
		  }
		}
	  },
	  {
		"name": "ae_decoder/res8/separable_conv2d_13/separable_conv2d",
		"op": "Conv2D",
		"input": [
		  "ae_decoder/res8/separable_conv2d_13/separable_conv2d/depthwise",
		  "ae_decoder/res8/separable_conv2d_13/pointwise_kernel"
		],
		"device": "/device:CPU:0",
		"attr": {
		  "dilations": {
			"list": {
			  "i": [
				"1",
				"1",
				"1",
				"1"
			  ]
			}
		  },
		  "T": {
			"type": "DT_FLOAT"
		  },
		  "data_format": {
			"s": "TkhXQw=="
		  },
		  "strides": {
			"list": {
			  "i": [
				"1",
				"1",
				"1",
				"1"
			  ]
			}
		  },
		  "use_cudnn_on_gpu": {
			"b": true
		  },
		  "explicit_paddings": {
			"list": {}
		  },
		  "padding": {
			"s": "VkFMSUQ="
		  }
		}
	  },
	  {
		"name": "ae_decoder/res8/BatchNorm/FusedBatchNormV3",
		"op": "FusedBatchNormV3",
		"input": [
		  "ae_decoder/res8/separable_conv2d_13/separable_conv2d",
		  "ae_decoder/res6/BatchNorm/Const",
		  "ae_decoder/res8/BatchNorm/beta",
		  "ae_encoder/res1/BatchNorm/Const_1",
		  "ae_encoder/res1/BatchNorm/Const_1"
		],
		"attr": {
		  "epsilon": {
			"f": 0.0010000000474974513
		  },
		  "T": {
			"type": "DT_FLOAT"
		  },
		  "U": {
			"type": "DT_FLOAT"
		  },
		  "data_format": {
			"s": "TkhXQw=="
		  },
		  "is_training": {
			"b": true
		  }
		}
	  },
	  {
		"name": "ae_decoder/res8/LeakyRelu",
		"op": "LeakyRelu",
		"input": [
		  "ae_decoder/res8/BatchNorm/FusedBatchNormV3"
		],
		"attr": {
		  "T": {
			"type": "DT_FLOAT"
		  },
		  "alpha": {
			"f": 0.20000000298023224
		  }
		}
	  },
	  {
		"name": "ae_decoder/res8/conv2d_27/Conv2D",
		"op": "Conv2D",
		"input": [
		  "ae_decoder/res8/LeakyRelu",
		  "ae_decoder/res8/conv2d_27/kernel"
		],
		"device": "/device:CPU:0",
		"attr": {
		  "dilations": {
			"list": {
			  "i": [
				"1",
				"1",
				"1",
				"1"
			  ]
			}
		  },
		  "T": {
			"type": "DT_FLOAT"
		  },
		  "data_format": {
			"s": "TkhXQw=="
		  },
		  "strides": {
			"list": {
			  "i": [
				"1",
				"1",
				"1",
				"1"
			  ]
			}
		  },
		  "use_cudnn_on_gpu": {
			"b": true
		  },
		  "explicit_paddings": {
			"list": {}
		  },
		  "padding": {
			"s": "U0FNRQ=="
		  }
		}
	  },
	  {
		"name": "ae_decoder/res8/BatchNorm_1/FusedBatchNormV3",
		"op": "FusedBatchNormV3",
		"input": [
		  "ae_decoder/res8/conv2d_27/Conv2D",
		  "ae_decoder/res6/BatchNorm/Const",
		  "ae_decoder/res8/BatchNorm_1/beta",
		  "ae_encoder/res1/BatchNorm/Const_1",
		  "ae_encoder/res1/BatchNorm/Const_1"
		],
		"attr": {
		  "epsilon": {
			"f": 0.0010000000474974513
		  },
		  "T": {
			"type": "DT_FLOAT"
		  },
		  "U": {
			"type": "DT_FLOAT"
		  },
		  "data_format": {
			"s": "TkhXQw=="
		  },
		  "is_training": {
			"b": true
		  }
		}
	  },
	  {
		"name": "ae_decoder/res8/LeakyRelu_1",
		"op": "LeakyRelu",
		"input": [
		  "ae_decoder/res8/BatchNorm_1/FusedBatchNormV3"
		],
		"attr": {
		  "T": {
			"type": "DT_FLOAT"
		  },
		  "alpha": {
			"f": 0.20000000298023224
		  }
		}
	  },
	  {
		"name": "ae_decoder/res8/Add",
		"op": "Add",
		"input": [
		  "ae_decoder/res8/BatchNorm_2/FusedBatchNormV3",
		  "ae_decoder/res8/LeakyRelu_1"
		],
		"attr": {
		  "T": {
			"type": "DT_FLOAT"
		  }
		}
	  },
	  {
		"name": "ae_decoder/up_sampling2d_3/Shape",
		"op": "Shape",
		"input": [
		  "ae_decoder/res8/Add"
		],
		"attr": {
		  "T": {
			"type": "DT_FLOAT"
		  },
		  "out_type": {
			"type": "DT_INT32"
		  }
		}
	  },
	  {
		"name": "ae_decoder/up_sampling2d_3/strided_slice",
		"op": "StridedSlice",
		"input": [
		  "ae_decoder/up_sampling2d_3/Shape",
		  "strided_slice_1/stack",
		  "ae_decoder/up_sampling2d_3/strided_slice/stack_1",
		  "strided_slice_1/stack"
		],
		"attr": {
		  "T": {
			"type": "DT_INT32"
		  },
		  "Index": {
			"type": "DT_INT32"
		  },
		  "shrink_axis_mask": {
			"i": "0"
		  },
		  "begin_mask": {
			"i": "0"
		  },
		  "ellipsis_mask": {
			"i": "0"
		  },
		  "new_axis_mask": {
			"i": "0"
		  },
		  "end_mask": {
			"i": "0"
		  }
		}
	  },
	  {
		"name": "ae_decoder/up_sampling2d_3/mul",
		"op": "Mul",
		"input": [
		  "ae_decoder/up_sampling2d_3/Const",
		  "ae_decoder/up_sampling2d_3/strided_slice"
		],
		"attr": {
		  "T": {
			"type": "DT_INT32"
		  }
		}
	  },
	  {
		"name": "ae_decoder/up_sampling2d_3/resize/ResizeNearestNeighbor",
		"op": "ResizeNearestNeighbor",
		"input": [
		  "ae_decoder/res8/Add",
		  "ae_decoder/up_sampling2d_3/mul"
		],
		"attr": {
		  "align_corners": {
			"b": false
		  },
		  "half_pixel_centers": {
			"b": true
		  },
		  "T": {
			"type": "DT_FLOAT"
		  }
		}
	  },
	  {
		"name": "ae_decoder/res9/conv2d_28/Conv2D",
		"op": "Conv2D",
		"input": [
		  "ae_decoder/up_sampling2d_3/resize/ResizeNearestNeighbor",
		  "ae_decoder/res9/conv2d_28/kernel"
		],
		"device": "/device:CPU:0",
		"attr": {
		  "dilations": {
			"list": {
			  "i": [
				"1",
				"1",
				"1",
				"1"
			  ]
			}
		  },
		  "T": {
			"type": "DT_FLOAT"
		  },
		  "data_format": {
			"s": "TkhXQw=="
		  },
		  "strides": {
			"list": {
			  "i": [
				"1",
				"1",
				"1",
				"1"
			  ]
			}
		  },
		  "explicit_paddings": {
			"list": {}
		  },
		  "use_cudnn_on_gpu": {
			"b": true
		  },
		  "padding": {
			"s": "U0FNRQ=="
		  }
		}
	  },
	  {
		"name": "ae_decoder/res9/separable_conv2d_14/separable_conv2d/depthwise",
		"op": "DepthwiseConv2dNative",
		"input": [
		  "ae_decoder/up_sampling2d_3/resize/ResizeNearestNeighbor",
		  "ae_decoder/res9/separable_conv2d_14/depthwise_kernel"
		],
		"attr": {
		  "padding": {
			"s": "U0FNRQ=="
		  },
		  "dilations": {
			"list": {
			  "i": [
				"1",
				"1",
				"1",
				"1"
			  ]
			}
		  },
		  "T": {
			"type": "DT_FLOAT"
		  },
		  "strides": {
			"list": {
			  "i": [
				"1",
				"1",
				"1",
				"1"
			  ]
			}
		  },
		  "data_format": {
			"s": "TkhXQw=="
		  }
		}
	  },
	  {
		"name": "ae_decoder/res9/BatchNorm_2/FusedBatchNormV3",
		"op": "FusedBatchNormV3",
		"input": [
		  "ae_decoder/res9/conv2d_28/Conv2D",
		  "ae_encoder/res1/BatchNorm/Const",
		  "ae_decoder/res9/BatchNorm_2/beta",
		  "ae_encoder/res1/BatchNorm/Const_1",
		  "ae_encoder/res1/BatchNorm/Const_1"
		],
		"attr": {
		  "epsilon": {
			"f": 0.0010000000474974513
		  },
		  "T": {
			"type": "DT_FLOAT"
		  },
		  "U": {
			"type": "DT_FLOAT"
		  },
		  "data_format": {
			"s": "TkhXQw=="
		  },
		  "is_training": {
			"b": true
		  }
		}
	  },
	  {
		"name": "ae_decoder/res9/separable_conv2d_14/separable_conv2d",
		"op": "Conv2D",
		"input": [
		  "ae_decoder/res9/separable_conv2d_14/separable_conv2d/depthwise",
		  "ae_decoder/res9/separable_conv2d_14/pointwise_kernel"
		],
		"device": "/device:CPU:0",
		"attr": {
		  "dilations": {
			"list": {
			  "i": [
				"1",
				"1",
				"1",
				"1"
			  ]
			}
		  },
		  "T": {
			"type": "DT_FLOAT"
		  },
		  "strides": {
			"list": {
			  "i": [
				"1",
				"1",
				"1",
				"1"
			  ]
			}
		  },
		  "data_format": {
			"s": "TkhXQw=="
		  },
		  "use_cudnn_on_gpu": {
			"b": true
		  },
		  "explicit_paddings": {
			"list": {}
		  },
		  "padding": {
			"s": "VkFMSUQ="
		  }
		}
	  },
	  {
		"name": "ae_decoder/res9/BatchNorm/FusedBatchNormV3",
		"op": "FusedBatchNormV3",
		"input": [
		  "ae_decoder/res9/separable_conv2d_14/separable_conv2d",
		  "ae_encoder/res1/BatchNorm/Const",
		  "ae_decoder/res9/BatchNorm/beta",
		  "ae_encoder/res1/BatchNorm/Const_1",
		  "ae_encoder/res1/BatchNorm/Const_1"
		],
		"attr": {
		  "epsilon": {
			"f": 0.0010000000474974513
		  },
		  "T": {
			"type": "DT_FLOAT"
		  },
		  "U": {
			"type": "DT_FLOAT"
		  },
		  "data_format": {
			"s": "TkhXQw=="
		  },
		  "is_training": {
			"b": true
		  }
		}
	  },
	  {
		"name": "ae_decoder/res9/LeakyRelu",
		"op": "LeakyRelu",
		"input": [
		  "ae_decoder/res9/BatchNorm/FusedBatchNormV3"
		],
		"attr": {
		  "T": {
			"type": "DT_FLOAT"
		  },
		  "alpha": {
			"f": 0.20000000298023224
		  }
		}
	  },
	  {
		"name": "ae_decoder/res9/conv2d_29/Conv2D",
		"op": "Conv2D",
		"input": [
		  "ae_decoder/res9/LeakyRelu",
		  "ae_decoder/res9/conv2d_29/kernel"
		],
		"device": "/device:CPU:0",
		"attr": {
		  "dilations": {
			"list": {
			  "i": [
				"1",
				"1",
				"1",
				"1"
			  ]
			}
		  },
		  "T": {
			"type": "DT_FLOAT"
		  },
		  "data_format": {
			"s": "TkhXQw=="
		  },
		  "strides": {
			"list": {
			  "i": [
				"1",
				"1",
				"1",
				"1"
			  ]
			}
		  },
		  "explicit_paddings": {
			"list": {}
		  },
		  "use_cudnn_on_gpu": {
			"b": true
		  },
		  "padding": {
			"s": "U0FNRQ=="
		  }
		}
	  },
	  {
		"name": "ae_decoder/res9/BatchNorm_1/FusedBatchNormV3",
		"op": "FusedBatchNormV3",
		"input": [
		  "ae_decoder/res9/conv2d_29/Conv2D",
		  "ae_encoder/res1/BatchNorm/Const",
		  "ae_decoder/res9/BatchNorm_1/beta",
		  "ae_encoder/res1/BatchNorm/Const_1",
		  "ae_encoder/res1/BatchNorm/Const_1"
		],
		"attr": {
		  "epsilon": {
			"f": 0.0010000000474974513
		  },
		  "T": {
			"type": "DT_FLOAT"
		  },
		  "U": {
			"type": "DT_FLOAT"
		  },
		  "data_format": {
			"s": "TkhXQw=="
		  },
		  "is_training": {
			"b": true
		  }
		}
	  },
	  {
		"name": "ae_decoder/res9/LeakyRelu_1",
		"op": "LeakyRelu",
		"input": [
		  "ae_decoder/res9/BatchNorm_1/FusedBatchNormV3"
		],
		"attr": {
		  "T": {
			"type": "DT_FLOAT"
		  },
		  "alpha": {
			"f": 0.20000000298023224
		  }
		}
	  },
	  {
		"name": "ae_decoder/res9/Add",
		"op": "Add",
		"input": [
		  "ae_decoder/res9/BatchNorm_2/FusedBatchNormV3",
		  "ae_decoder/res9/LeakyRelu_1"
		],
		"attr": {
		  "T": {
			"type": "DT_FLOAT"
		  }
		}
	  },
	  {
		"name": "ae_decoder/conv10/conv/Conv2D",
		"op": "Conv2D",
		"input": [
		  "ae_decoder/res9/Add",
		  "ae_decoder/conv10/conv/kernel"
		],
		"device": "/device:CPU:0",
		"attr": {
		  "dilations": {
			"list": {
			  "i": [
				"1",
				"1",
				"1",
				"1"
			  ]
			}
		  },
		  "T": {
			"type": "DT_FLOAT"
		  },
		  "data_format": {
			"s": "TkhXQw=="
		  },
		  "strides": {
			"list": {
			  "i": [
				"1",
				"1",
				"1",
				"1"
			  ]
			}
		  },
		  "use_cudnn_on_gpu": {
			"b": true
		  },
		  "explicit_paddings": {
			"list": {}
		  },
		  "padding": {
			"s": "U0FNRQ=="
		  }
		}
	  },
	  {
		"name": "ae_decoder/conv10/Tanh",
		"op": "Tanh",
		"input": [
		  "ae_decoder/conv10/conv/Conv2D"
		],
		"attr": {
		  "T": {
			"type": "DT_FLOAT"
		  }
		}
	  },
	  {
		"name": "ae_decoder/add",
		"op": "AddV2",
		"input": [
		  "ae_decoder/conv10/Tanh",
		  "sub/x"
		],
		"attr": {
		  "T": {
			"type": "DT_FLOAT"
		  }
		}
	  },
	  {
		"name": "ae_decoder/truediv",
		"op": "Mul",
		"input": [
		  "ConstantFolding/ae_decoder/truediv_recip",
		  "ae_decoder/add"
		],
		"attr": {
		  "T": {
			"type": "DT_FLOAT"
		  }
		}
	  }
	],
	"versions": {}
  },
  "weightsManifest": [
	{
	  "paths": [
		"group1-shard1of3.bin",
		"group1-shard2of3.bin",
		"group1-shard3of3.bin"
	  ],
	  "weights": [
		{
		  "name": "Reshape/shape",
		  "shape": [
			4
		  ],
		  "dtype": "int32"
		},
		{
		  "name": "ae_encoder/res1/conv2d/kernel",
		  "shape": [
			1,
			1,
			1,
			32
		  ],
		  "dtype": "float32"
		},
		{
		  "name": "ae_decoder/res6/separable_conv2d_12/depthwise_kernel",
		  "shape": [
			3,
			3,
			128,
			1
		  ],
		  "dtype": "float32"
		},
		{
		  "name": "ae_encoder/res1/separable_conv2d/depthwise_kernel",
		  "shape": [
			3,
			3,
			1,
			1
		  ],
		  "dtype": "float32"
		},
		{
		  "name": "ae_decoder/res9/BatchNorm_1/beta",
		  "shape": [
			32
		  ],
		  "dtype": "float32"
		},
		{
		  "name": "ae_encoder/res1/separable_conv2d/pointwise_kernel",
		  "shape": [
			1,
			1,
			1,
			32
		  ],
		  "dtype": "float32"
		},
		{
		  "name": "ae_encoder/res1/BatchNorm/Const",
		  "shape": [
			32
		  ],
		  "dtype": "float32"
		},
		{
		  "name": "ae_encoder/res1/BatchNorm/beta",
		  "shape": [
			32
		  ],
		  "dtype": "float32"
		},
		{
		  "name": "ae_decoder/res6/separable_conv2d_12/pointwise_kernel",
		  "shape": [
			1,
			1,
			128,
			64
		  ],
		  "dtype": "float32"
		},
		{
		  "name": "ae_encoder/res1/BatchNorm/Const_1",
		  "shape": [
			0
		  ],
		  "dtype": "float32"
		},
		{
		  "name": "ae_encoder/res1/conv2d_1/kernel",
		  "shape": [
			1,
			1,
			32,
			32
		  ],
		  "dtype": "float32"
		},
		{
		  "name": "ae_encoder/res1/BatchNorm_1/beta",
		  "shape": [
			32
		  ],
		  "dtype": "float32"
		},
		{
		  "name": "ae_encoder/res1/BatchNorm_2/beta",
		  "shape": [
			32
		  ],
		  "dtype": "float32"
		},
		{
		  "name": "ae_decoder/res6/BatchNorm/Const",
		  "shape": [
			64
		  ],
		  "dtype": "float32"
		},
		{
		  "name": "ae_encoder/res2/conv2d_2/kernel",
		  "shape": [
			1,
			1,
			32,
			32
		  ],
		  "dtype": "float32"
		},
		{
		  "name": "ae_decoder/res6/BatchNorm/beta",
		  "shape": [
			64
		  ],
		  "dtype": "float32"
		},
		{
		  "name": "ae_encoder/res2/separable_conv2d_1/depthwise_kernel",
		  "shape": [
			3,
			3,
			32,
			1
		  ],
		  "dtype": "float32"
		},
		{
		  "name": "ae_encoder/res2/separable_conv2d_1/pointwise_kernel",
		  "shape": [
			1,
			1,
			32,
			32
		  ],
		  "dtype": "float32"
		},
		{
		  "name": "ae_encoder/res2/BatchNorm/beta",
		  "shape": [
			32
		  ],
		  "dtype": "float32"
		},
		{
		  "name": "ae_encoder/res2/conv2d_3/kernel",
		  "shape": [
			1,
			1,
			32,
			32
		  ],
		  "dtype": "float32"
		},
		{
		  "name": "ae_encoder/res2/BatchNorm_1/beta",
		  "shape": [
			32
		  ],
		  "dtype": "float32"
		},
		{
		  "name": "ae_encoder/res2/BatchNorm_2/beta",
		  "shape": [
			32
		  ],
		  "dtype": "float32"
		},
		{
		  "name": "ae_decoder/res6/conv2d_25/kernel",
		  "shape": [
			1,
			1,
			64,
			64
		  ],
		  "dtype": "float32"
		},
		{
		  "name": "ae_encoder/res3/conv2d_4/kernel",
		  "shape": [
			1,
			1,
			32,
			64
		  ],
		  "dtype": "float32"
		},
		{
		  "name": "ae_encoder/res3/separable_conv2d_2/depthwise_kernel",
		  "shape": [
			3,
			3,
			32,
			1
		  ],
		  "dtype": "float32"
		},
		{
		  "name": "ae_encoder/res3/separable_conv2d_2/pointwise_kernel",
		  "shape": [
			1,
			1,
			32,
			64
		  ],
		  "dtype": "float32"
		},
		{
		  "name": "ae_encoder/res3/BatchNorm/beta",
		  "shape": [
			64
		  ],
		  "dtype": "float32"
		},
		{
		  "name": "ae_decoder/res6/BatchNorm_1/beta",
		  "shape": [
			64
		  ],
		  "dtype": "float32"
		},
		{
		  "name": "ae_encoder/res3/conv2d_5/kernel",
		  "shape": [
			1,
			1,
			64,
			64
		  ],
		  "dtype": "float32"
		},
		{
		  "name": "ae_encoder/res3/BatchNorm_1/beta",
		  "shape": [
			64
		  ],
		  "dtype": "float32"
		},
		{
		  "name": "ae_encoder/res3/BatchNorm_2/beta",
		  "shape": [
			64
		  ],
		  "dtype": "float32"
		},
		{
		  "name": "ae_encoder/res4/conv2d_6/kernel",
		  "shape": [
			1,
			1,
			64,
			64
		  ],
		  "dtype": "float32"
		},
		{
		  "name": "ae_encoder/res4/separable_conv2d_3/depthwise_kernel",
		  "shape": [
			3,
			3,
			64,
			1
		  ],
		  "dtype": "float32"
		},
		{
		  "name": "ae_encoder/res4/separable_conv2d_3/pointwise_kernel",
		  "shape": [
			1,
			1,
			64,
			64
		  ],
		  "dtype": "float32"
		},
		{
		  "name": "ae_encoder/res4/BatchNorm/beta",
		  "shape": [
			64
		  ],
		  "dtype": "float32"
		},
		{
		  "name": "ae_decoder/res6/BatchNorm_2/beta",
		  "shape": [
			64
		  ],
		  "dtype": "float32"
		},
		{
		  "name": "ae_encoder/res4/conv2d_7/kernel",
		  "shape": [
			1,
			1,
			64,
			64
		  ],
		  "dtype": "float32"
		},
		{
		  "name": "ae_encoder/res4/BatchNorm_1/beta",
		  "shape": [
			64
		  ],
		  "dtype": "float32"
		},
		{
		  "name": "ae_encoder/res4/BatchNorm_2/beta",
		  "shape": [
			64
		  ],
		  "dtype": "float32"
		},
		{
		  "name": "ae_encoder/res6/conv2d_8/kernel",
		  "shape": [
			1,
			1,
			64,
			128
		  ],
		  "dtype": "float32"
		},
		{
		  "name": "ae_encoder/res6/separable_conv2d_4/depthwise_kernel",
		  "shape": [
			3,
			3,
			64,
			1
		  ],
		  "dtype": "float32"
		},
		{
		  "name": "ae_encoder/res6/separable_conv2d_4/pointwise_kernel",
		  "shape": [
			1,
			1,
			64,
			128
		  ],
		  "dtype": "float32"
		},
		{
		  "name": "ae_decoder/res8/conv2d_26/kernel",
		  "shape": [
			1,
			1,
			64,
			64
		  ],
		  "dtype": "float32"
		},
		{
		  "name": "ae_encoder/res6/BatchNorm/Const",
		  "shape": [
			128
		  ],
		  "dtype": "float32"
		},
		{
		  "name": "ae_encoder/res6/BatchNorm/beta",
		  "shape": [
			128
		  ],
		  "dtype": "float32"
		},
		{
		  "name": "ae_encoder/res6/conv2d_9/kernel",
		  "shape": [
			1,
			1,
			128,
			128
		  ],
		  "dtype": "float32"
		},
		{
		  "name": "ae_encoder/res6/BatchNorm_1/beta",
		  "shape": [
			128
		  ],
		  "dtype": "float32"
		},
		{
		  "name": "ae_decoder/res8/separable_conv2d_13/depthwise_kernel",
		  "shape": [
			3,
			3,
			64,
			1
		  ],
		  "dtype": "float32"
		},
		{
		  "name": "ae_encoder/res6/BatchNorm_2/beta",
		  "shape": [
			128
		  ],
		  "dtype": "float32"
		},
		{
		  "name": "ae_decoder/res9/BatchNorm_2/beta",
		  "shape": [
			32
		  ],
		  "dtype": "float32"
		},
		{
		  "name": "ae_encoder/res7/conv2d_10/kernel",
		  "shape": [
			1,
			1,
			128,
			128
		  ],
		  "dtype": "float32"
		},
		{
		  "name": "ae_encoder/res7/separable_conv2d_5/depthwise_kernel",
		  "shape": [
			3,
			3,
			128,
			1
		  ],
		  "dtype": "float32"
		},
		{
		  "name": "ae_decoder/res8/separable_conv2d_13/pointwise_kernel",
		  "shape": [
			1,
			1,
			64,
			64
		  ],
		  "dtype": "float32"
		},
		{
		  "name": "ae_encoder/res7/separable_conv2d_5/pointwise_kernel",
		  "shape": [
			1,
			1,
			128,
			128
		  ],
		  "dtype": "float32"
		},
		{
		  "name": "ae_encoder/res7/BatchNorm/beta",
		  "shape": [
			128
		  ],
		  "dtype": "float32"
		},
		{
		  "name": "ae_encoder/res7/conv2d_11/kernel",
		  "shape": [
			1,
			1,
			128,
			128
		  ],
		  "dtype": "float32"
		},
		{
		  "name": "ae_encoder/res7/BatchNorm_1/beta",
		  "shape": [
			128
		  ],
		  "dtype": "float32"
		},
		{
		  "name": "ae_decoder/res8/BatchNorm/beta",
		  "shape": [
			64
		  ],
		  "dtype": "float32"
		},
		{
		  "name": "ae_encoder/res7/BatchNorm_2/beta",
		  "shape": [
			128
		  ],
		  "dtype": "float32"
		},
		{
		  "name": "ae_encoder/res8/conv2d_12/kernel",
		  "shape": [
			1,
			1,
			128,
			256
		  ],
		  "dtype": "float32"
		},
		{
		  "name": "ae_encoder/res8/separable_conv2d_6/depthwise_kernel",
		  "shape": [
			3,
			3,
			128,
			1
		  ],
		  "dtype": "float32"
		},
		{
		  "name": "ae_encoder/res8/separable_conv2d_6/pointwise_kernel",
		  "shape": [
			1,
			1,
			128,
			256
		  ],
		  "dtype": "float32"
		},
		{
		  "name": "ae_encoder/res8/BatchNorm/Const",
		  "shape": [
			256
		  ],
		  "dtype": "float32"
		},
		{
		  "name": "ae_encoder/res8/BatchNorm/beta",
		  "shape": [
			256
		  ],
		  "dtype": "float32"
		},
		{
		  "name": "ae_encoder/res8/conv2d_13/kernel",
		  "shape": [
			1,
			1,
			256,
			256
		  ],
		  "dtype": "float32"
		},
		{
		  "name": "ae_decoder/res8/conv2d_27/kernel",
		  "shape": [
			1,
			1,
			64,
			64
		  ],
		  "dtype": "float32"
		},
		{
		  "name": "ae_encoder/res8/BatchNorm_1/beta",
		  "shape": [
			256
		  ],
		  "dtype": "float32"
		},
		{
		  "name": "ae_encoder/res8/BatchNorm_2/beta",
		  "shape": [
			256
		  ],
		  "dtype": "float32"
		},
		{
		  "name": "ae_encoder/res9/conv2d_14/kernel",
		  "shape": [
			1,
			1,
			256,
			256
		  ],
		  "dtype": "float32"
		},
		{
		  "name": "ae_encoder/res9/separable_conv2d_7/depthwise_kernel",
		  "shape": [
			3,
			3,
			256,
			1
		  ],
		  "dtype": "float32"
		},
		{
		  "name": "ae_decoder/res8/BatchNorm_1/beta",
		  "shape": [
			64
		  ],
		  "dtype": "float32"
		},
		{
		  "name": "ae_encoder/res9/separable_conv2d_7/pointwise_kernel",
		  "shape": [
			1,
			1,
			256,
			256
		  ],
		  "dtype": "float32"
		},
		{
		  "name": "ae_encoder/res9/BatchNorm/beta",
		  "shape": [
			256
		  ],
		  "dtype": "float32"
		},
		{
		  "name": "ae_encoder/res9/conv2d_15/kernel",
		  "shape": [
			1,
			1,
			256,
			256
		  ],
		  "dtype": "float32"
		},
		{
		  "name": "ae_encoder/res9/BatchNorm_1/beta",
		  "shape": [
			256
		  ],
		  "dtype": "float32"
		},
		{
		  "name": "ae_encoder/res9/BatchNorm_2/beta",
		  "shape": [
			256
		  ],
		  "dtype": "float32"
		},
		{
		  "name": "ae_encoder/Reshape/shape",
		  "shape": [
			2
		  ],
		  "dtype": "int32"
		},
		{
		  "name": "ae_encoder/fc_bottleneck/fc/kernel",
		  "shape": [
			4096,
			256
		  ],
		  "dtype": "float32"
		},
		{
		  "name": "ConstantFolding/ae_decoder/truediv_recip",
		  "shape": [],
		  "dtype": "float32"
		},
		{
		  "name": "ae_encoder/fc_bottleneck/fc/bias",
		  "shape": [
			256
		  ],
		  "dtype": "float32"
		},
		{
		  "name": "ae_decoder/res8/BatchNorm_2/beta",
		  "shape": [
			64
		  ],
		  "dtype": "float32"
		},
		{
		  "name": "ae_encoder/fc_bottleneck/BatchNorm/Reshape/shape",
		  "shape": [
			4
		  ],
		  "dtype": "int32"
		},
		{
		  "name": "ae_encoder/fc_bottleneck/BatchNorm/beta",
		  "shape": [
			256
		  ],
		  "dtype": "float32"
		},
		{
		  "name": "strided_slice/stack",
		  "shape": [
			1
		  ],
		  "dtype": "int32"
		},
		{
		  "name": "strided_slice/stack_2",
		  "shape": [
			1
		  ],
		  "dtype": "int32"
		},
		{
		  "name": "sub/x",
		  "shape": [],
		  "dtype": "float32"
		},
		{
		  "name": "strided_slice_1/stack",
		  "shape": [
			1
		  ],
		  "dtype": "int32"
		},
		{
		  "name": "ae_decoder/fc_recon/fc/kernel",
		  "shape": [
			256,
			4096
		  ],
		  "dtype": "float32"
		},
		{
		  "name": "ae_decoder/fc_recon/fc/bias",
		  "shape": [
			4096
		  ],
		  "dtype": "float32"
		},
		{
		  "name": "ae_decoder/fc_recon/BatchNorm/Reshape/shape",
		  "shape": [
			4
		  ],
		  "dtype": "int32"
		},
		{
		  "name": "ae_decoder/fc_recon/BatchNorm/beta",
		  "shape": [
			4096
		  ],
		  "dtype": "float32"
		},
		{
		  "name": "ae_decoder/fc_recon/BatchNorm/Const",
		  "shape": [
			4096
		  ],
		  "dtype": "float32"
		},
		{
		  "name": "ae_decoder/Reshape/shape",
		  "shape": [
			4
		  ],
		  "dtype": "int32"
		},
		{
		  "name": "ae_decoder/res1/conv2d_16/kernel",
		  "shape": [
			1,
			1,
			256,
			256
		  ],
		  "dtype": "float32"
		},
		{
		  "name": "ae_decoder/res1/separable_conv2d_8/depthwise_kernel",
		  "shape": [
			3,
			3,
			256,
			1
		  ],
		  "dtype": "float32"
		},
		{
		  "name": "ae_decoder/res1/separable_conv2d_8/pointwise_kernel",
		  "shape": [
			1,
			1,
			256,
			256
		  ],
		  "dtype": "float32"
		},
		{
		  "name": "ae_decoder/res1/BatchNorm/beta",
		  "shape": [
			256
		  ],
		  "dtype": "float32"
		},
		{
		  "name": "ae_decoder/up_sampling2d_3/strided_slice/stack_1",
		  "shape": [
			1
		  ],
		  "dtype": "int32"
		},
		{
		  "name": "ae_decoder/res1/conv2d_17/kernel",
		  "shape": [
			1,
			1,
			256,
			256
		  ],
		  "dtype": "float32"
		},
		{
		  "name": "ae_decoder/res1/BatchNorm_1/beta",
		  "shape": [
			256
		  ],
		  "dtype": "float32"
		},
		{
		  "name": "ae_decoder/res1/BatchNorm_2/beta",
		  "shape": [
			256
		  ],
		  "dtype": "float32"
		},
		{
		  "name": "ae_decoder/up_sampling2d_3/Const",
		  "shape": [
			2
		  ],
		  "dtype": "int32"
		},
		{
		  "name": "ae_decoder/res2/conv2d_18/kernel",
		  "shape": [
			1,
			1,
			256,
			256
		  ],
		  "dtype": "float32"
		},
		{
		  "name": "ae_decoder/res2/separable_conv2d_9/depthwise_kernel",
		  "shape": [
			3,
			3,
			256,
			1
		  ],
		  "dtype": "float32"
		},
		{
		  "name": "ae_decoder/res2/separable_conv2d_9/pointwise_kernel",
		  "shape": [
			1,
			1,
			256,
			256
		  ],
		  "dtype": "float32"
		},
		{
		  "name": "ae_decoder/res9/conv2d_28/kernel",
		  "shape": [
			1,
			1,
			64,
			32
		  ],
		  "dtype": "float32"
		},
		{
		  "name": "ae_decoder/res2/BatchNorm/beta",
		  "shape": [
			256
		  ],
		  "dtype": "float32"
		},
		{
		  "name": "ae_decoder/conv10/conv/kernel",
		  "shape": [
			7,
			7,
			32,
			1
		  ],
		  "dtype": "float32"
		},
		{
		  "name": "ae_decoder/res2/conv2d_19/kernel",
		  "shape": [
			1,
			1,
			256,
			256
		  ],
		  "dtype": "float32"
		},
		{
		  "name": "ae_decoder/res2/BatchNorm_1/beta",
		  "shape": [
			256
		  ],
		  "dtype": "float32"
		},
		{
		  "name": "ae_decoder/res9/separable_conv2d_14/depthwise_kernel",
		  "shape": [
			3,
			3,
			64,
			1
		  ],
		  "dtype": "float32"
		},
		{
		  "name": "ae_decoder/res2/BatchNorm_2/beta",
		  "shape": [
			256
		  ],
		  "dtype": "float32"
		},
		{
		  "name": "ae_decoder/res3/conv2d_20/kernel",
		  "shape": [
			1,
			1,
			256,
			128
		  ],
		  "dtype": "float32"
		},
		{
		  "name": "ae_decoder/res3/separable_conv2d_10/depthwise_kernel",
		  "shape": [
			3,
			3,
			256,
			1
		  ],
		  "dtype": "float32"
		},
		{
		  "name": "ae_decoder/res9/separable_conv2d_14/pointwise_kernel",
		  "shape": [
			1,
			1,
			64,
			32
		  ],
		  "dtype": "float32"
		},
		{
		  "name": "ae_decoder/res3/separable_conv2d_10/pointwise_kernel",
		  "shape": [
			1,
			1,
			256,
			128
		  ],
		  "dtype": "float32"
		},
		{
		  "name": "ae_decoder/res3/BatchNorm/beta",
		  "shape": [
			128
		  ],
		  "dtype": "float32"
		},
		{
		  "name": "ae_decoder/res3/conv2d_21/kernel",
		  "shape": [
			1,
			1,
			128,
			128
		  ],
		  "dtype": "float32"
		},
		{
		  "name": "ae_decoder/res3/BatchNorm_1/beta",
		  "shape": [
			128
		  ],
		  "dtype": "float32"
		},
		{
		  "name": "ae_decoder/res9/BatchNorm/beta",
		  "shape": [
			32
		  ],
		  "dtype": "float32"
		},
		{
		  "name": "ae_decoder/res3/BatchNorm_2/beta",
		  "shape": [
			128
		  ],
		  "dtype": "float32"
		},
		{
		  "name": "ae_decoder/res4/conv2d_22/kernel",
		  "shape": [
			1,
			1,
			128,
			128
		  ],
		  "dtype": "float32"
		},
		{
		  "name": "ae_decoder/res4/separable_conv2d_11/depthwise_kernel",
		  "shape": [
			3,
			3,
			128,
			1
		  ],
		  "dtype": "float32"
		},
		{
		  "name": "ae_decoder/res4/separable_conv2d_11/pointwise_kernel",
		  "shape": [
			1,
			1,
			128,
			128
		  ],
		  "dtype": "float32"
		},
		{
		  "name": "ae_decoder/res4/BatchNorm/beta",
		  "shape": [
			128
		  ],
		  "dtype": "float32"
		},
		{
		  "name": "ae_decoder/res4/conv2d_23/kernel",
		  "shape": [
			1,
			1,
			128,
			128
		  ],
		  "dtype": "float32"
		},
		{
		  "name": "ae_decoder/res9/conv2d_29/kernel",
		  "shape": [
			1,
			1,
			32,
			32
		  ],
		  "dtype": "float32"
		},
		{
		  "name": "ae_decoder/res4/BatchNorm_1/beta",
		  "shape": [
			128
		  ],
		  "dtype": "float32"
		},
		{
		  "name": "ae_decoder/res4/BatchNorm_2/beta",
		  "shape": [
			128
		  ],
		  "dtype": "float32"
		},
		{
		  "name": "ae_decoder/res6/conv2d_24/kernel",
		  "shape": [
			1,
			1,
			128,
			64
		  ],
		  "dtype": "float32"
		}
	  ]
	}
  ]
}